…
I0422 11:44:44.012583 25283 net.cpp:322] The NetState phase (0) differed from the phase (1) specified by a rule in layer data
I0422 11:44:44.012794 25283 net.cpp:49] Initializing net from parameters: 
name: "UROP-CaffeNet"
state {
  phase: TRAIN
}
layer {
  name: "data"
  type: "ImageData"
  top: "data"
  top: "label"
  include {
    phase: TRAIN
  }
  transform_param {
    mirror: true
    crop_size: 227
    mean_file: "data/ilsvrc12/imagenet_mean.binaryproto"
  }
  image_data_param {
    source: "urop/dance/opticalflow/train.txt"
    batch_size: 256
    shuffle: true
  }
}
layer {
  name: "conv1"
  type: "Convolution"
  bottom: "data"
  top: "conv1"
  param {
    lr_mult: 1
    decay_mult: 1
  }
  param {
    lr_mult: 2
    decay_mult: 0
  }
  convolution_param {
    num_output: 96
    kernel_size: 11
    stride: 4
    weight_filler {
      type: "gaussian"
      std: 0.01
    }
    bias_filler {
      type: "constant"
      value: 0
    }
  }
}
layer {
  name: "relu1"
  type: "ReLU"
  bottom: "conv1"
  top: "conv1"
}
layer {
  name: "pool1"
  type: "Pooling"
  bottom: "conv1"
  top: "pool1"
  pooling_param {
    pool: MAX
    kernel_size: 3
    stride: 2
  }
}
layer {
  name: "norm1"
  type: "LRN"
  bottom: "pool1"
  top: "norm1"
  lrn_param {
    local_size: 5
    alpha: 0.0001
    beta: 0.75
  }
}
layer {
  name: "conv2"
  type: "Convolution"
  bottom: "norm1"
  top: "conv2"
  param {
    lr_mult: 1
    decay_mult: 1
  }
  param {
    lr_mult: 2
    decay_mult: 0
  }
  convolution_param {
    num_output: 256
    pad: 2
    kernel_size: 5
    group: 2
    weight_filler {
      type: "gaussian"
      std: 0.01
    }
    bias_filler {
      type: "constant"
      value: 1
    }
  }
}
layer {
  name: "relu2"
  type: "ReLU"
  bottom: "conv2"
  top: "conv2"
}
layer {
  name: "pool2"
  type: "Pooling"
  bottom: "conv2"
  top: "pool2"
  pooling_param {
    pool: MAX
    kernel_size: 3
    stride: 2
  }
}
layer {
  name: "norm2"
  type: "LRN"
  bottom: "pool2"
  top: "norm2"
  lrn_param {
    local_size: 5
    alpha: 0.0001
    beta: 0.75
  }
}
layer {
  name: "conv3"
  type: "Convolution"
  bottom: "norm2"
  top: "conv3"
  param {
    lr_mult: 1
    decay_mult: 1
  }
  param {
    lr_mult: 2
    decay_mult: 0
  }
  convolution_param {
    num_output: 384
    pad: 1
    kernel_size: 3
    weight_filler {
      type: "gaussian"
      std: 0.01
    }
    bias_filler {
      type: "constant"
      value: 0
    }
  }
}
layer {
  name: "relu3"
  type: "ReLU"
  bottom: "conv3"
  top: "conv3"
}
layer {
  name: "conv4"
  type: "Convolution"
  bottom: "conv3"
  top: "conv4"
  param {
    lr_mult: 1
    decay_mult: 1
  }
  param {
    lr_mult: 2
    decay_mult: 0
  }
  convolution_param {
    num_output: 384
    pad: 1
    kernel_size: 3
    group: 2
    weight_filler {
      type: "gaussian"
      std: 0.01
    }
    bias_filler {
      type: "constant"
      value: 1
    }
  }
}
layer {
  name: "relu4"
  type: "ReLU"
  bottom: "conv4"
  top: "conv4"
}
layer {
  name: "conv5"
  type: "Convolution"
  bottom: "conv4"
  top: "conv5"
  param {
    lr_mult: 1
    decay_mult: 1
  }
  param {
    lr_mult: 2
    decay_mult: 0
  }
  convolution_param {
    num_output: 256
    pad: 1
    kernel_size: 3
    group: 2
    weight_filler {
      type: "gaussian"
      std: 0.01
    }
    bias_filler {
      type: "constant"
      value: 1
    }
  }
}
layer {
  name: "relu5"
  type: "ReLU"
  bottom: "conv5"
  top: "conv5"
}
layer {
  name: "pool5"
  type: "Pooling"
  bottom: "conv5"
  top: "pool5"
  pooling_param {
    pool: MAX
    kernel_size: 3
    stride: 2
  }
}
layer {
  name: "fc6"
  type: "InnerProduct"
  bottom: "pool5"
  top: "fc6"
  param {
    lr_mult: 1
    decay_mult: 1
  }
  param {
    lr_mult: 2
    decay_mult: 0
  }
  inner_product_param {
    num_output: 4096
    weight_filler {
      type: "gaussian"
      std: 0.005
    }
    bias_filler {
      type: "constant"
      value: 1
    }
  }
}
layer {
  name: "relu6"
  type: "ReLU"
  bottom: "fc6"
  top: "fc6"
}
layer {
  name: "drop6"
  type: "Dropout"
  bottom: "fc6"
  top: "fc6"
  dropout_param {
    dropout_ratio: 0.5
  }
}
layer {
  name: "fc7"
  type: "InnerProduct"
  bottom: "fc6"
  top: "fc7"
  param {
    lr_mult: 1
    decay_mult: 1
  }
  param {
    lr_mult: 2
    decay_mult: 0
  }
  inner_product_param {
    num_output: 4096
    weight_filler {
      type: "gaussian"
      std: 0.005
    }
    bias_filler {
      type: "constant"
      value: 1
    }
  }
}
layer {
  name: "relu7"
  type: "ReLU"
  bottom: "fc7"
  top: "fc7"
}
layer {
  name: "drop7"
  type: "Dropout"
  bottom: "fc7"
  top: "fc7"
  dropout_param {
    dropout_ratio: 0.5
  }
}
layer {
  name: "fc8_urop"
  type: "InnerProduct"
  bottom: "fc7"
  top: "fc8_urop"
  param {
    lr_mult: 10
    decay_mult: 1
  }
  param {
    lr_mult: 20
    decay_mult: 0
  }
  inner_product_param {
    num_output: 10
    weight_filler {
      type: "gaussian"
      std: 0.01
    }
    bias_filler {
      type: "constant"
      value: 0
    }
  }
}
layer {
  name: "accuracy"
  type: "Accuracy"
  bottom: "fc8_urop"
  bottom: "label"
  top: "accuracy"
}
layer {
  name: "loss"
  type: "SoftmaxWithLoss"
  bottom: "fc8_urop"
  bottom: "label"
  top: "loss"
}
I0422 11:44:44.012933 25283 layer_factory.hpp:77] Creating layer data
I0422 11:44:44.012962 25283 net.cpp:106] Creating Layer data
I0422 11:44:44.012969 25283 net.cpp:411] data -> data
I0422 11:44:44.012989 25283 net.cpp:411] data -> label
I0422 11:44:44.013001 25283 data_transformer.cpp:25] Loading mean file from: data/ilsvrc12/imagenet_mean.binaryproto
I0422 11:44:44.022899 25283 image_data_layer.cpp:38] Opening file urop/dance/opticalflow/train.txt
I0422 11:44:44.097342 25283 image_data_layer.cpp:48] Shuffling data
I0422 11:44:44.119629 25283 image_data_layer.cpp:53] A total of 174165 images.
I0422 11:44:44.120098 25283 image_data_layer.cpp:80] output data size: 256,3,227,227
I0422 11:44:44.269048 25283 net.cpp:150] Setting up data
I0422 11:44:44.269079 25283 net.cpp:157] Top shape: 256 3 227 227 (39574272)
I0422 11:44:44.269098 25283 net.cpp:157] Top shape: 256 (256)
I0422 11:44:44.269099 25283 net.cpp:165] Memory required for data: 158298112
I0422 11:44:44.269106 25283 layer_factory.hpp:77] Creating layer label_data_1_split
I0422 11:44:44.269126 25283 net.cpp:106] Creating Layer label_data_1_split
I0422 11:44:44.269131 25283 net.cpp:454] label_data_1_split <- label
I0422 11:44:44.269139 25283 net.cpp:411] label_data_1_split -> label_data_1_split_0
I0422 11:44:44.269145 25283 net.cpp:411] label_data_1_split -> label_data_1_split_1
I0422 11:44:44.269191 25283 net.cpp:150] Setting up label_data_1_split
I0422 11:44:44.269197 25283 net.cpp:157] Top shape: 256 (256)
I0422 11:44:44.269199 25283 net.cpp:157] Top shape: 256 (256)
I0422 11:44:44.269201 25283 net.cpp:165] Memory required for data: 158300160
I0422 11:44:44.269203 25283 layer_factory.hpp:77] Creating layer conv1
I0422 11:44:44.269214 25283 net.cpp:106] Creating Layer conv1
I0422 11:44:44.269217 25283 net.cpp:454] conv1 <- data
I0422 11:44:44.269222 25283 net.cpp:411] conv1 -> conv1
I0422 11:44:44.286696 25283 net.cpp:150] Setting up conv1
I0422 11:44:44.286707 25283 net.cpp:157] Top shape: 256 96 55 55 (74342400)
I0422 11:44:44.286723 25283 net.cpp:165] Memory required for data: 455669760
I0422 11:44:44.286734 25283 layer_factory.hpp:77] Creating layer relu1
I0422 11:44:44.286741 25283 net.cpp:106] Creating Layer relu1
I0422 11:44:44.286743 25283 net.cpp:454] relu1 <- conv1
I0422 11:44:44.286746 25283 net.cpp:397] relu1 -> conv1 (in-place)
I0422 11:44:44.286754 25283 net.cpp:150] Setting up relu1
I0422 11:44:44.286769 25283 net.cpp:157] Top shape: 256 96 55 55 (74342400)
I0422 11:44:44.286772 25283 net.cpp:165] Memory required for data: 753039360
I0422 11:44:44.286773 25283 layer_factory.hpp:77] Creating layer pool1
I0422 11:44:44.286778 25283 net.cpp:106] Creating Layer pool1
I0422 11:44:44.286780 25283 net.cpp:454] pool1 <- conv1
I0422 11:44:44.286783 25283 net.cpp:411] pool1 -> pool1
I0422 11:44:44.286810 25283 net.cpp:150] Setting up pool1
I0422 11:44:44.286814 25283 net.cpp:157] Top shape: 256 96 27 27 (17915904)
I0422 11:44:44.286816 25283 net.cpp:165] Memory required for data: 824702976
I0422 11:44:44.286818 25283 layer_factory.hpp:77] Creating layer norm1
I0422 11:44:44.286823 25283 net.cpp:106] Creating Layer norm1
I0422 11:44:44.286825 25283 net.cpp:454] norm1 <- pool1
I0422 11:44:44.286828 25283 net.cpp:411] norm1 -> norm1
I0422 11:44:44.286846 25283 net.cpp:150] Setting up norm1
I0422 11:44:44.286849 25283 net.cpp:157] Top shape: 256 96 27 27 (17915904)
I0422 11:44:44.286850 25283 net.cpp:165] Memory required for data: 896366592
I0422 11:44:44.286852 25283 layer_factory.hpp:77] Creating layer conv2
I0422 11:44:44.286859 25283 net.cpp:106] Creating Layer conv2
I0422 11:44:44.286860 25283 net.cpp:454] conv2 <- norm1
I0422 11:44:44.286864 25283 net.cpp:411] conv2 -> conv2
I0422 11:44:44.293757 25283 net.cpp:150] Setting up conv2
I0422 11:44:44.293766 25283 net.cpp:157] Top shape: 256 256 27 27 (47775744)
I0422 11:44:44.293781 25283 net.cpp:165] Memory required for data: 1087469568
I0422 11:44:44.293787 25283 layer_factory.hpp:77] Creating layer relu2
I0422 11:44:44.293792 25283 net.cpp:106] Creating Layer relu2
I0422 11:44:44.293794 25283 net.cpp:454] relu2 <- conv2
I0422 11:44:44.293799 25283 net.cpp:397] relu2 -> conv2 (in-place)
I0422 11:44:44.293803 25283 net.cpp:150] Setting up relu2
I0422 11:44:44.293805 25283 net.cpp:157] Top shape: 256 256 27 27 (47775744)
I0422 11:44:44.293807 25283 net.cpp:165] Memory required for data: 1278572544
I0422 11:44:44.293809 25283 layer_factory.hpp:77] Creating layer pool2
I0422 11:44:44.293813 25283 net.cpp:106] Creating Layer pool2
I0422 11:44:44.293815 25283 net.cpp:454] pool2 <- conv2
I0422 11:44:44.293818 25283 net.cpp:411] pool2 -> pool2
I0422 11:44:44.293839 25283 net.cpp:150] Setting up pool2
I0422 11:44:44.293844 25283 net.cpp:157] Top shape: 256 256 13 13 (11075584)
I0422 11:44:44.293846 25283 net.cpp:165] Memory required for data: 1322874880
I0422 11:44:44.293848 25283 layer_factory.hpp:77] Creating layer norm2
I0422 11:44:44.293853 25283 net.cpp:106] Creating Layer norm2
I0422 11:44:44.293854 25283 net.cpp:454] norm2 <- pool2
I0422 11:44:44.293858 25283 net.cpp:411] norm2 -> norm2
I0422 11:44:44.293874 25283 net.cpp:150] Setting up norm2
I0422 11:44:44.293876 25283 net.cpp:157] Top shape: 256 256 13 13 (11075584)
I0422 11:44:44.293879 25283 net.cpp:165] Memory required for data: 1367177216
I0422 11:44:44.293880 25283 layer_factory.hpp:77] Creating layer conv3
I0422 11:44:44.293885 25283 net.cpp:106] Creating Layer conv3
I0422 11:44:44.293887 25283 net.cpp:454] conv3 <- norm2
I0422 11:44:44.293890 25283 net.cpp:411] conv3 -> conv3
I0422 11:44:44.312196 25283 net.cpp:150] Setting up conv3
I0422 11:44:44.312222 25283 net.cpp:157] Top shape: 256 384 13 13 (16613376)
I0422 11:44:44.312224 25283 net.cpp:165] Memory required for data: 1433630720
I0422 11:44:44.312232 25283 layer_factory.hpp:77] Creating layer relu3
I0422 11:44:44.312237 25283 net.cpp:106] Creating Layer relu3
I0422 11:44:44.312239 25283 net.cpp:454] relu3 <- conv3
I0422 11:44:44.312245 25283 net.cpp:397] relu3 -> conv3 (in-place)
I0422 11:44:44.312250 25283 net.cpp:150] Setting up relu3
I0422 11:44:44.312252 25283 net.cpp:157] Top shape: 256 384 13 13 (16613376)
I0422 11:44:44.312254 25283 net.cpp:165] Memory required for data: 1500084224
I0422 11:44:44.312257 25283 layer_factory.hpp:77] Creating layer conv4
I0422 11:44:44.312263 25283 net.cpp:106] Creating Layer conv4
I0422 11:44:44.312264 25283 net.cpp:454] conv4 <- conv3
I0422 11:44:44.312268 25283 net.cpp:411] conv4 -> conv4
I0422 11:44:44.326058 25283 net.cpp:150] Setting up conv4
I0422 11:44:44.326093 25283 net.cpp:157] Top shape: 256 384 13 13 (16613376)
I0422 11:44:44.326097 25283 net.cpp:165] Memory required for data: 1566537728
I0422 11:44:44.326100 25283 layer_factory.hpp:77] Creating layer relu4
I0422 11:44:44.326105 25283 net.cpp:106] Creating Layer relu4
I0422 11:44:44.326107 25283 net.cpp:454] relu4 <- conv4
I0422 11:44:44.326112 25283 net.cpp:397] relu4 -> conv4 (in-place)
I0422 11:44:44.326115 25283 net.cpp:150] Setting up relu4
I0422 11:44:44.326117 25283 net.cpp:157] Top shape: 256 384 13 13 (16613376)
I0422 11:44:44.326122 25283 net.cpp:165] Memory required for data: 1632991232
I0422 11:44:44.326123 25283 layer_factory.hpp:77] Creating layer conv5
I0422 11:44:44.326130 25283 net.cpp:106] Creating Layer conv5
I0422 11:44:44.326133 25283 net.cpp:454] conv5 <- conv4
I0422 11:44:44.326136 25283 net.cpp:411] conv5 -> conv5
I0422 11:44:44.335530 25283 net.cpp:150] Setting up conv5
I0422 11:44:44.335539 25283 net.cpp:157] Top shape: 256 256 13 13 (11075584)
I0422 11:44:44.335541 25283 net.cpp:165] Memory required for data: 1677293568
I0422 11:44:44.335548 25283 layer_factory.hpp:77] Creating layer relu5
I0422 11:44:44.335554 25283 net.cpp:106] Creating Layer relu5
I0422 11:44:44.335557 25283 net.cpp:454] relu5 <- conv5
I0422 11:44:44.335561 25283 net.cpp:397] relu5 -> conv5 (in-place)
I0422 11:44:44.335566 25283 net.cpp:150] Setting up relu5
I0422 11:44:44.335568 25283 net.cpp:157] Top shape: 256 256 13 13 (11075584)
I0422 11:44:44.335571 25283 net.cpp:165] Memory required for data: 1721595904
I0422 11:44:44.335572 25283 layer_factory.hpp:77] Creating layer pool5
I0422 11:44:44.335577 25283 net.cpp:106] Creating Layer pool5
I0422 11:44:44.335578 25283 net.cpp:454] pool5 <- conv5
I0422 11:44:44.335582 25283 net.cpp:411] pool5 -> pool5
I0422 11:44:44.335610 25283 net.cpp:150] Setting up pool5
I0422 11:44:44.335616 25283 net.cpp:157] Top shape: 256 256 6 6 (2359296)
I0422 11:44:44.335619 25283 net.cpp:165] Memory required for data: 1731033088
I0422 11:44:44.335623 25283 layer_factory.hpp:77] Creating layer fc6
I0422 11:44:44.335631 25283 net.cpp:106] Creating Layer fc6
I0422 11:44:44.335635 25283 net.cpp:454] fc6 <- pool5
I0422 11:44:44.335643 25283 net.cpp:411] fc6 -> fc6
I0422 11:44:45.122514 25283 net.cpp:150] Setting up fc6
I0422 11:44:45.122531 25283 net.cpp:157] Top shape: 256 4096 (1048576)
I0422 11:44:45.122534 25283 net.cpp:165] Memory required for data: 1735227392
I0422 11:44:45.122540 25283 layer_factory.hpp:77] Creating layer relu6
I0422 11:44:45.122546 25283 net.cpp:106] Creating Layer relu6
I0422 11:44:45.122548 25283 net.cpp:454] relu6 <- fc6
I0422 11:44:45.122553 25283 net.cpp:397] relu6 -> fc6 (in-place)
I0422 11:44:45.122558 25283 net.cpp:150] Setting up relu6
I0422 11:44:45.122561 25283 net.cpp:157] Top shape: 256 4096 (1048576)
I0422 11:44:45.122563 25283 net.cpp:165] Memory required for data: 1739421696
I0422 11:44:45.122565 25283 layer_factory.hpp:77] Creating layer drop6
I0422 11:44:45.122568 25283 net.cpp:106] Creating Layer drop6
I0422 11:44:45.122570 25283 net.cpp:454] drop6 <- fc6
I0422 11:44:45.122575 25283 net.cpp:397] drop6 -> fc6 (in-place)
I0422 11:44:45.122589 25283 net.cpp:150] Setting up drop6
I0422 11:44:45.122592 25283 net.cpp:157] Top shape: 256 4096 (1048576)
I0422 11:44:45.122594 25283 net.cpp:165] Memory required for data: 1743616000
I0422 11:44:45.122596 25283 layer_factory.hpp:77] Creating layer fc7
I0422 11:44:45.122601 25283 net.cpp:106] Creating Layer fc7
I0422 11:44:45.122602 25283 net.cpp:454] fc7 <- fc6
I0422 11:44:45.122606 25283 net.cpp:411] fc7 -> fc7
I0422 11:44:45.470382 25283 net.cpp:150] Setting up fc7
I0422 11:44:45.470398 25283 net.cpp:157] Top shape: 256 4096 (1048576)
I0422 11:44:45.470401 25283 net.cpp:165] Memory required for data: 1747810304
I0422 11:44:45.470407 25283 layer_factory.hpp:77] Creating layer relu7
I0422 11:44:45.470425 25283 net.cpp:106] Creating Layer relu7
I0422 11:44:45.470428 25283 net.cpp:454] relu7 <- fc7
I0422 11:44:45.470433 25283 net.cpp:397] relu7 -> fc7 (in-place)
I0422 11:44:45.470458 25283 net.cpp:150] Setting up relu7
I0422 11:44:45.470463 25283 net.cpp:157] Top shape: 256 4096 (1048576)
I0422 11:44:45.470484 25283 net.cpp:165] Memory required for data: 1752004608
I0422 11:44:45.470486 25283 layer_factory.hpp:77] Creating layer drop7
I0422 11:44:45.470494 25283 net.cpp:106] Creating Layer drop7
I0422 11:44:45.470497 25283 net.cpp:454] drop7 <- fc7
I0422 11:44:45.470502 25283 net.cpp:397] drop7 -> fc7 (in-place)
I0422 11:44:45.470535 25283 net.cpp:150] Setting up drop7
I0422 11:44:45.470541 25283 net.cpp:157] Top shape: 256 4096 (1048576)
I0422 11:44:45.470544 25283 net.cpp:165] Memory required for data: 1756198912
I0422 11:44:45.470547 25283 layer_factory.hpp:77] Creating layer fc8_urop
I0422 11:44:45.470554 25283 net.cpp:106] Creating Layer fc8_urop
I0422 11:44:45.470561 25283 net.cpp:454] fc8_urop <- fc7
I0422 11:44:45.470568 25283 net.cpp:411] fc8_urop -> fc8_urop
I0422 11:44:45.471513 25283 net.cpp:150] Setting up fc8_urop
I0422 11:44:45.471523 25283 net.cpp:157] Top shape: 256 10 (2560)
I0422 11:44:45.471525 25283 net.cpp:165] Memory required for data: 1756209152
I0422 11:44:45.471532 25283 layer_factory.hpp:77] Creating layer fc8_urop_fc8_urop_0_split
I0422 11:44:45.471539 25283 net.cpp:106] Creating Layer fc8_urop_fc8_urop_0_split
I0422 11:44:45.471541 25283 net.cpp:454] fc8_urop_fc8_urop_0_split <- fc8_urop
I0422 11:44:45.471549 25283 net.cpp:411] fc8_urop_fc8_urop_0_split -> fc8_urop_fc8_urop_0_split_0
I0422 11:44:45.471557 25283 net.cpp:411] fc8_urop_fc8_urop_0_split -> fc8_urop_fc8_urop_0_split_1
I0422 11:44:45.471580 25283 net.cpp:150] Setting up fc8_urop_fc8_urop_0_split
I0422 11:44:45.471585 25283 net.cpp:157] Top shape: 256 10 (2560)
I0422 11:44:45.471590 25283 net.cpp:157] Top shape: 256 10 (2560)
I0422 11:44:45.471592 25283 net.cpp:165] Memory required for data: 1756229632
I0422 11:44:45.471596 25283 layer_factory.hpp:77] Creating layer accuracy
I0422 11:44:45.471603 25283 net.cpp:106] Creating Layer accuracy
I0422 11:44:45.471606 25283 net.cpp:454] accuracy <- fc8_urop_fc8_urop_0_split_0
I0422 11:44:45.471611 25283 net.cpp:454] accuracy <- label_data_1_split_0
I0422 11:44:45.471616 25283 net.cpp:411] accuracy -> accuracy
…
I0422 11:44:45.472501 25283 net.cpp:322] The NetState phase (1) differed from the phase (0) specified by a rule in layer data
I0422 11:44:45.472622 25283 net.cpp:49] Initializing net from parameters: 
name: "UROP-CaffeNet"
state {
  phase: TEST
}
layer {
  name: "data"
  type: "ImageData"
  top: "data"
  top: "label"
  include {
    phase: TEST
  }
  transform_param {
    mirror: false
    crop_size: 227
    mean_file: "data/ilsvrc12/imagenet_mean.binaryproto"
  }
  image_data_param {
    source: "urop/dance/opticalflow/val.txt"
    batch_size: 50
    shuffle: true
  }
}
layer {
  name: "conv1"
  type: "Convolution"
  bottom: "data"
  top: "conv1"
  param {
    lr_mult: 1
    decay_mult: 1
  }
  param {
    lr_mult: 2
    decay_mult: 0
  }
  convolution_param {
    num_output: 96
    kernel_size: 11
    stride: 4
    weight_filler {
      type: "gaussian"
      std: 0.01
    }
    bias_filler {
      type: "constant"
      value: 0
    }
  }
}
layer {
  name: "relu1"
  type: "ReLU"
  bottom: "conv1"
  top: "conv1"
}
layer {
  name: "pool1"
  type: "Pooling"
  bottom: "conv1"
  top: "pool1"
  pooling_param {
    pool: MAX
    kernel_size: 3
    stride: 2
  }
}
layer {
  name: "norm1"
  type: "LRN"
  bottom: "pool1"
  top: "norm1"
  lrn_param {
    local_size: 5
    alpha: 0.0001
    beta: 0.75
  }
}
layer {
  name: "conv2"
  type: "Convolution"
  bottom: "norm1"
  top: "conv2"
  param {
    lr_mult: 1
    decay_mult: 1
  }
  param {
    lr_mult: 2
    decay_mult: 0
  }
  convolution_param {
    num_output: 256
    pad: 2
    kernel_size: 5
    group: 2
    weight_filler {
      type: "gaussian"
      std: 0.01
    }
    bias_filler {
      type: "constant"
      value: 1
    }
  }
}
layer {
  name: "relu2"
  type: "ReLU"
  bottom: "conv2"
  top: "conv2"
}
layer {
  name: "pool2"
  type: "Pooling"
  bottom: "conv2"
  top: "pool2"
  pooling_param {
    pool: MAX
    kernel_size: 3
    stride: 2
  }
}
layer {
  name: "norm2"
  type: "LRN"
  bottom: "pool2"
  top: "norm2"
  lrn_param {
    local_size: 5
    alpha: 0.0001
    beta: 0.75
  }
}
layer {
  name: "conv3"
  type: "Convolution"
  bottom: "norm2"
  top: "conv3"
  param {
    lr_mult: 1
    decay_mult: 1
  }
  param {
    lr_mult: 2
    decay_mult: 0
  }
  convolution_param {
    num_output: 384
    pad: 1
    kernel_size: 3
    weight_filler {
      type: "gaussian"
      std: 0.01
    }
    bias_filler {
      type: "constant"
      value: 0
    }
  }
}
layer {
  name: "relu3"
  type: "ReLU"
  bottom: "conv3"
  top: "conv3"
}
layer {
  name: "conv4"
  type: "Convolution"
  bottom: "conv3"
  top: "conv4"
  param {
    lr_mult: 1
    decay_mult: 1
  }
  param {
    lr_mult: 2
    decay_mult: 0
  }
  convolution_param {
    num_output: 384
    pad: 1
    kernel_size: 3
    group: 2
    weight_filler {
      type: "gaussian"
      std: 0.01
    }
    bias_filler {
      type: "constant"
      value: 1
    }
  }
}
layer {
  name: "relu4"
  type: "ReLU"
  bottom: "conv4"
  top: "conv4"
}
layer {
  name: "conv5"
  type: "Convolution"
  bottom: "conv4"
  top: "conv5"
  param {
    lr_mult: 1
    decay_mult: 1
  }
  param {
    lr_mult: 2
    decay_mult: 0
  }
  convolution_param {
    num_output: 256
    pad: 1
    kernel_size: 3
    group: 2
    weight_filler {
      type: "gaussian"
      std: 0.01
    }
    bias_filler {
      type: "constant"
      value: 1
    }
  }
}
layer {
  name: "relu5"
  type: "ReLU"
  bottom: "conv5"
  top: "conv5"
}
layer {
  name: "pool5"
  type: "Pooling"
  bottom: "conv5"
  top: "pool5"
  pooling_param {
    pool: MAX
    kernel_size: 3
    stride: 2
  }
}
layer {
  name: "fc6"
  type: "InnerProduct"
  bottom: "pool5"
  top: "fc6"
  param {
    lr_mult: 1
    decay_mult: 1
  }
  param {
    lr_mult: 2
    decay_mult: 0
  }
  inner_product_param {
    num_output: 4096
    weight_filler {
      type: "gaussian"
      std: 0.005
    }
    bias_filler {
      type: "constant"
      value: 1
    }
  }
}
layer {
  name: "relu6"
  type: "ReLU"
  bottom: "fc6"
  top: "fc6"
}
layer {
  name: "drop6"
  type: "Dropout"
  bottom: "fc6"
  top: "fc6"
  dropout_param {
    dropout_ratio: 0.5
  }
}
layer {
  name: "fc7"
  type: "InnerProduct"
  bottom: "fc6"
  top: "fc7"
  param {
    lr_mult: 1
    decay_mult: 1
  }
  param {
    lr_mult: 2
    decay_mult: 0
  }
  inner_product_param {
    num_output: 4096
    weight_filler {
      type: "gaussian"
      std: 0.005
    }
    bias_filler {
      type: "constant"
      value: 1
    }
  }
}
layer {
  name: "relu7"
  type: "ReLU"
  bottom: "fc7"
  top: "fc7"
}
layer {
  name: "drop7"
  type: "Dropout"
  bottom: "fc7"
  top: "fc7"
  dropout_param {
    dropout_ratio: 0.5
  }
}
layer {
  name: "fc8_urop"
  type: "InnerProduct"
  bottom: "fc7"
  top: "fc8_urop"
  param {
    lr_mult: 10
    decay_mult: 1
  }
  param {
    lr_mult: 20
    decay_mult: 0
  }
  inner_product_param {
    num_output: 10
    weight_filler {
      type: "gaussian"
      std: 0.01
    }
    bias_filler {
      type: "constant"
      value: 0
    }
  }
}
layer {
  name: "accuracy"
  type: "Accuracy"
  bottom: "fc8_urop"
  bottom: "label"
  top: "accuracy"
}
layer {
  name: "loss"
  type: "SoftmaxWithLoss"
  bottom: "fc8_urop"
  bottom: "label"
  top: "loss"
}
I0422 11:44:45.472764 25283 layer_factory.hpp:77] Creating layer data
I0422 11:44:45.472775 25283 net.cpp:106] Creating Layer data
I0422 11:44:45.472780 25283 net.cpp:411] data -> data
I0422 11:44:45.472789 25283 net.cpp:411] data -> label
I0422 11:44:45.472795 25283 data_transformer.cpp:25] Loading mean file from: data/ilsvrc12/imagenet_mean.binaryproto
I0422 11:44:45.474439 25283 image_data_layer.cpp:38] Opening file urop/dance/opticalflow/val.txt
I0422 11:44:45.498306 25283 image_data_layer.cpp:48] Shuffling data
I0422 11:44:45.504706 25283 image_data_layer.cpp:53] A total of 75821 images.
I0422 11:44:45.505198 25283 image_data_layer.cpp:80] output data size: 50,3,227,227
I0422 11:44:45.534814 25283 net.cpp:150] Setting up data
I0422 11:44:45.534845 25283 net.cpp:157] Top shape: 50 3 227 227 (7729350)
I0422 11:44:45.534852 25283 net.cpp:157] Top shape: 50 (50)
I0422 11:44:45.534854 25283 net.cpp:165] Memory required for data: 30917600
I0422 11:44:45.534873 25283 layer_factory.hpp:77] Creating layer label_data_1_split
I0422 11:44:45.534883 25283 net.cpp:106] Creating Layer label_data_1_split
I0422 11:44:45.534888 25283 net.cpp:454] label_data_1_split <- label
I0422 11:44:45.534894 25283 net.cpp:411] label_data_1_split -> label_data_1_split_0
I0422 11:44:45.534904 25283 net.cpp:411] label_data_1_split -> label_data_1_split_1
I0422 11:44:45.534945 25283 net.cpp:150] Setting up label_data_1_split
I0422 11:44:45.534950 25283 net.cpp:157] Top shape: 50 (50)
I0422 11:44:45.534955 25283 net.cpp:157] Top shape: 50 (50)
I0422 11:44:45.534971 25283 net.cpp:165] Memory required for data: 30918000
I0422 11:44:45.534975 25283 layer_factory.hpp:77] Creating layer conv1
I0422 11:44:45.534986 25283 net.cpp:106] Creating Layer conv1
I0422 11:44:45.534991 25283 net.cpp:454] conv1 <- data
I0422 11:44:45.534996 25283 net.cpp:411] conv1 -> conv1
I0422 11:44:45.535919 25283 net.cpp:150] Setting up conv1
I0422 11:44:45.535926 25283 net.cpp:157] Top shape: 50 96 55 55 (14520000)
I0422 11:44:45.535930 25283 net.cpp:165] Memory required for data: 88998000
I0422 11:44:45.535940 25283 layer_factory.hpp:77] Creating layer relu1
I0422 11:44:45.535961 25283 net.cpp:106] Creating Layer relu1
I0422 11:44:45.535967 25283 net.cpp:454] relu1 <- conv1
I0422 11:44:45.535972 25283 net.cpp:397] relu1 -> conv1 (in-place)
I0422 11:44:45.535979 25283 net.cpp:150] Setting up relu1
I0422 11:44:45.535984 25283 net.cpp:157] Top shape: 50 96 55 55 (14520000)
I0422 11:44:45.535987 25283 net.cpp:165] Memory required for data: 147078000
I0422 11:44:45.535991 25283 layer_factory.hpp:77] Creating layer pool1
I0422 11:44:45.535997 25283 net.cpp:106] Creating Layer pool1
I0422 11:44:45.536001 25283 net.cpp:454] pool1 <- conv1
I0422 11:44:45.536007 25283 net.cpp:411] pool1 -> pool1
I0422 11:44:45.536032 25283 net.cpp:150] Setting up pool1
I0422 11:44:45.536037 25283 net.cpp:157] Top shape: 50 96 27 27 (3499200)
I0422 11:44:45.536041 25283 net.cpp:165] Memory required for data: 161074800
I0422 11:44:45.536044 25283 layer_factory.hpp:77] Creating layer norm1
I0422 11:44:45.536051 25283 net.cpp:106] Creating Layer norm1
I0422 11:44:45.536053 25283 net.cpp:454] norm1 <- pool1
I0422 11:44:45.536058 25283 net.cpp:411] norm1 -> norm1
I0422 11:44:45.536082 25283 net.cpp:150] Setting up norm1
I0422 11:44:45.536087 25283 net.cpp:157] Top shape: 50 96 27 27 (3499200)
I0422 11:44:45.536089 25283 net.cpp:165] Memory required for data: 175071600
I0422 11:44:45.536093 25283 layer_factory.hpp:77] Creating layer conv2
I0422 11:44:45.536100 25283 net.cpp:106] Creating Layer conv2
I0422 11:44:45.536104 25283 net.cpp:454] conv2 <- norm1
I0422 11:44:45.536110 25283 net.cpp:411] conv2 -> conv2
I0422 11:44:45.543174 25283 net.cpp:150] Setting up conv2
I0422 11:44:45.543189 25283 net.cpp:157] Top shape: 50 256 27 27 (9331200)
I0422 11:44:45.543191 25283 net.cpp:165] Memory required for data: 212396400
I0422 11:44:45.543200 25283 layer_factory.hpp:77] Creating layer relu2
I0422 11:44:45.543205 25283 net.cpp:106] Creating Layer relu2
I0422 11:44:45.543208 25283 net.cpp:454] relu2 <- conv2
I0422 11:44:45.543212 25283 net.cpp:397] relu2 -> conv2 (in-place)
I0422 11:44:45.543218 25283 net.cpp:150] Setting up relu2
I0422 11:44:45.543220 25283 net.cpp:157] Top shape: 50 256 27 27 (9331200)
I0422 11:44:45.543222 25283 net.cpp:165] Memory required for data: 249721200
I0422 11:44:45.543225 25283 layer_factory.hpp:77] Creating layer pool2
I0422 11:44:45.543229 25283 net.cpp:106] Creating Layer pool2
I0422 11:44:45.543231 25283 net.cpp:454] pool2 <- conv2
I0422 11:44:45.543234 25283 net.cpp:411] pool2 -> pool2
I0422 11:44:45.543259 25283 net.cpp:150] Setting up pool2
I0422 11:44:45.543264 25283 net.cpp:157] Top shape: 50 256 13 13 (2163200)
I0422 11:44:45.543267 25283 net.cpp:165] Memory required for data: 258374000
I0422 11:44:45.543267 25283 layer_factory.hpp:77] Creating layer norm2
I0422 11:44:45.543272 25283 net.cpp:106] Creating Layer norm2
I0422 11:44:45.543273 25283 net.cpp:454] norm2 <- pool2
I0422 11:44:45.543277 25283 net.cpp:411] norm2 -> norm2
I0422 11:44:45.543294 25283 net.cpp:150] Setting up norm2
I0422 11:44:45.543298 25283 net.cpp:157] Top shape: 50 256 13 13 (2163200)
I0422 11:44:45.543299 25283 net.cpp:165] Memory required for data: 267026800
I0422 11:44:45.543301 25283 layer_factory.hpp:77] Creating layer conv3
I0422 11:44:45.543308 25283 net.cpp:106] Creating Layer conv3
I0422 11:44:45.543309 25283 net.cpp:454] conv3 <- norm2
I0422 11:44:45.543313 25283 net.cpp:411] conv3 -> conv3
I0422 11:44:45.562228 25283 net.cpp:150] Setting up conv3
I0422 11:44:45.562242 25283 net.cpp:157] Top shape: 50 384 13 13 (3244800)
I0422 11:44:45.562259 25283 net.cpp:165] Memory required for data: 280006000
I0422 11:44:45.562268 25283 layer_factory.hpp:77] Creating layer relu3
I0422 11:44:45.562274 25283 net.cpp:106] Creating Layer relu3
I0422 11:44:45.562276 25283 net.cpp:454] relu3 <- conv3
I0422 11:44:45.562280 25283 net.cpp:397] relu3 -> conv3 (in-place)
I0422 11:44:45.562285 25283 net.cpp:150] Setting up relu3
I0422 11:44:45.562288 25283 net.cpp:157] Top shape: 50 384 13 13 (3244800)
I0422 11:44:45.562290 25283 net.cpp:165] Memory required for data: 292985200
I0422 11:44:45.562293 25283 layer_factory.hpp:77] Creating layer conv4
I0422 11:44:45.562299 25283 net.cpp:106] Creating Layer conv4
I0422 11:44:45.562300 25283 net.cpp:454] conv4 <- conv3
I0422 11:44:45.562304 25283 net.cpp:411] conv4 -> conv4
I0422 11:44:45.576810 25283 net.cpp:150] Setting up conv4
I0422 11:44:45.576824 25283 net.cpp:157] Top shape: 50 384 13 13 (3244800)
I0422 11:44:45.576828 25283 net.cpp:165] Memory required for data: 305964400
I0422 11:44:45.576833 25283 layer_factory.hpp:77] Creating layer relu4
I0422 11:44:45.576839 25283 net.cpp:106] Creating Layer relu4
I0422 11:44:45.576841 25283 net.cpp:454] relu4 <- conv4
I0422 11:44:45.576845 25283 net.cpp:397] relu4 -> conv4 (in-place)
I0422 11:44:45.576850 25283 net.cpp:150] Setting up relu4
I0422 11:44:45.576853 25283 net.cpp:157] Top shape: 50 384 13 13 (3244800)
I0422 11:44:45.576855 25283 net.cpp:165] Memory required for data: 318943600
I0422 11:44:45.576858 25283 layer_factory.hpp:77] Creating layer conv5
I0422 11:44:45.576865 25283 net.cpp:106] Creating Layer conv5
I0422 11:44:45.576869 25283 net.cpp:454] conv5 <- conv4
I0422 11:44:45.576872 25283 net.cpp:411] conv5 -> conv5
I0422 11:44:45.586415 25283 net.cpp:150] Setting up conv5
I0422 11:44:45.586424 25283 net.cpp:157] Top shape: 50 256 13 13 (2163200)
I0422 11:44:45.586426 25283 net.cpp:165] Memory required for data: 327596400
I0422 11:44:45.586433 25283 layer_factory.hpp:77] Creating layer relu5
I0422 11:44:45.586438 25283 net.cpp:106] Creating Layer relu5
I0422 11:44:45.586441 25283 net.cpp:454] relu5 <- conv5
I0422 11:44:45.586447 25283 net.cpp:397] relu5 -> conv5 (in-place)
I0422 11:44:45.586450 25283 net.cpp:150] Setting up relu5
I0422 11:44:45.586453 25283 net.cpp:157] Top shape: 50 256 13 13 (2163200)
I0422 11:44:45.586455 25283 net.cpp:165] Memory required for data: 336249200
I0422 11:44:45.586457 25283 layer_factory.hpp:77] Creating layer pool5
I0422 11:44:45.586462 25283 net.cpp:106] Creating Layer pool5
I0422 11:44:45.586464 25283 net.cpp:454] pool5 <- conv5
I0422 11:44:45.586468 25283 net.cpp:411] pool5 -> pool5
I0422 11:44:45.586491 25283 net.cpp:150] Setting up pool5
I0422 11:44:45.586495 25283 net.cpp:157] Top shape: 50 256 6 6 (460800)
I0422 11:44:45.586498 25283 net.cpp:165] Memory required for data: 338092400
I0422 11:44:45.586499 25283 layer_factory.hpp:77] Creating layer fc6
I0422 11:44:45.586504 25283 net.cpp:106] Creating Layer fc6
I0422 11:44:45.586508 25283 net.cpp:454] fc6 <- pool5
I0422 11:44:45.586510 25283 net.cpp:411] fc6 -> fc6
I0422 11:44:46.371969 25283 net.cpp:150] Setting up fc6
I0422 11:44:46.371985 25283 net.cpp:157] Top shape: 50 4096 (204800)
I0422 11:44:46.371987 25283 net.cpp:165] Memory required for data: 338911600
I0422 11:44:46.371994 25283 layer_factory.hpp:77] Creating layer relu6
I0422 11:44:46.372014 25283 net.cpp:106] Creating Layer relu6
I0422 11:44:46.372016 25283 net.cpp:454] relu6 <- fc6
I0422 11:44:46.372021 25283 net.cpp:397] relu6 -> fc6 (in-place)
I0422 11:44:46.372026 25283 net.cpp:150] Setting up relu6
I0422 11:44:46.372030 25283 net.cpp:157] Top shape: 50 4096 (204800)
I0422 11:44:46.372031 25283 net.cpp:165] Memory required for data: 339730800
I0422 11:44:46.372033 25283 layer_factory.hpp:77] Creating layer drop6
I0422 11:44:46.372037 25283 net.cpp:106] Creating Layer drop6
I0422 11:44:46.372040 25283 net.cpp:454] drop6 <- fc6
I0422 11:44:46.372043 25283 net.cpp:397] drop6 -> fc6 (in-place)
I0422 11:44:46.372061 25283 net.cpp:150] Setting up drop6
I0422 11:44:46.372064 25283 net.cpp:157] Top shape: 50 4096 (204800)
I0422 11:44:46.372079 25283 net.cpp:165] Memory required for data: 340550000
I0422 11:44:46.372082 25283 layer_factory.hpp:77] Creating layer fc7
I0422 11:44:46.372087 25283 net.cpp:106] Creating Layer fc7
I0422 11:44:46.372092 25283 net.cpp:454] fc7 <- fc6
I0422 11:44:46.372097 25283 net.cpp:411] fc7 -> fc7
I0422 11:44:46.711628 25283 net.cpp:150] Setting up fc7
I0422 11:44:46.711647 25283 net.cpp:157] Top shape: 50 4096 (204800)
I0422 11:44:46.711650 25283 net.cpp:165] Memory required for data: 341369200
I0422 11:44:46.711658 25283 layer_factory.hpp:77] Creating layer relu7
I0422 11:44:46.711666 25283 net.cpp:106] Creating Layer relu7
I0422 11:44:46.711673 25283 net.cpp:454] relu7 <- fc7
I0422 11:44:46.711678 25283 net.cpp:397] relu7 -> fc7 (in-place)
I0422 11:44:46.711684 25283 net.cpp:150] Setting up relu7
I0422 11:44:46.711686 25283 net.cpp:157] Top shape: 50 4096 (204800)
I0422 11:44:46.711688 25283 net.cpp:165] Memory required for data: 342188400
I0422 11:44:46.711690 25283 layer_factory.hpp:77] Creating layer drop7
I0422 11:44:46.711695 25283 net.cpp:106] Creating Layer drop7
I0422 11:44:46.711697 25283 net.cpp:454] drop7 <- fc7
I0422 11:44:46.711701 25283 net.cpp:397] drop7 -> fc7 (in-place)
I0422 11:44:46.711720 25283 net.cpp:150] Setting up drop7
I0422 11:44:46.711725 25283 net.cpp:157] Top shape: 50 4096 (204800)
I0422 11:44:46.711727 25283 net.cpp:165] Memory required for data: 343007600
I0422 11:44:46.711730 25283 layer_factory.hpp:77] Creating layer fc8_urop
I0422 11:44:46.711735 25283 net.cpp:106] Creating Layer fc8_urop
I0422 11:44:46.711736 25283 net.cpp:454] fc8_urop <- fc7
I0422 11:44:46.711740 25283 net.cpp:411] fc8_urop -> fc8_urop
I0422 11:44:46.712635 25283 net.cpp:150] Setting up fc8_urop
I0422 11:44:46.712640 25283 net.cpp:157] Top shape: 50 10 (500)
I0422 11:44:46.712641 25283 net.cpp:165] Memory required for data: 343009600
I0422 11:44:46.712646 25283 layer_factory.hpp:77] Creating layer fc8_urop_fc8_urop_0_split
I0422 11:44:46.712648 25283 net.cpp:106] Creating Layer fc8_urop_fc8_urop_0_split
I0422 11:44:46.712651 25283 net.cpp:454] fc8_urop_fc8_urop_0_split <- fc8_urop
I0422 11:44:46.712654 25283 net.cpp:411] fc8_urop_fc8_urop_0_split -> fc8_urop_fc8_urop_0_split_0
I0422 11:44:46.712658 25283 net.cpp:411] fc8_urop_fc8_urop_0_split -> fc8_urop_fc8_urop_0_split_1
I0422 11:44:46.712677 25283 net.cpp:150] Setting up fc8_urop_fc8_urop_0_split
I0422 11:44:46.712682 25283 net.cpp:157] Top shape: 50 10 (500)
I0422 11:44:46.712684 25283 net.cpp:157] Top shape: 50 10 (500)
I0422 11:44:46.712687 25283 net.cpp:165] Memory required for data: 343013600
I0422 11:44:46.712689 25283 layer_factory.hpp:77] Creating layer accuracy
I0422 11:44:46.712693 25283 net.cpp:106] Creating Layer accuracy
I0422 11:44:46.712695 25283 net.cpp:454] accuracy <- fc8_urop_fc8_urop_0_split_0
I0422 11:44:46.712698 25283 net.cpp:454] accuracy <- label_data_1_split_0
I0422 11:44:46.712702 25283 net.cpp:411] accuracy -> accuracy
…
