…
I0422 11:44:46.860198 25291 net.cpp:322] The NetState phase (0) differed from the phase (1) specified by a rule in layer data
I0422 11:44:46.860327 25291 net.cpp:49] Initializing net from parameters: 
name: "UROP-CaffeNet"
state {
  phase: TRAIN
}
layer {
  name: "data"
  type: "ImageData"
  top: "data"
  top: "label"
  include {
    phase: TRAIN
  }
  transform_param {
    mirror: true
    crop_size: 227
    mean_file: "data/ilsvrc12/imagenet_mean.binaryproto"
  }
  image_data_param {
    source: "urop/dance/original/train.txt"
    batch_size: 256
    shuffle: true
  }
}
layer {
  name: "conv1"
  type: "Convolution"
  bottom: "data"
  top: "conv1"
  param {
    lr_mult: 1
    decay_mult: 1
  }
  param {
    lr_mult: 2
    decay_mult: 0
  }
  convolution_param {
    num_output: 96
    kernel_size: 11
    stride: 4
    weight_filler {
      type: "gaussian"
      std: 0.01
    }
    bias_filler {
      type: "constant"
      value: 0
    }
  }
}
layer {
  name: "relu1"
  type: "ReLU"
  bottom: "conv1"
  top: "conv1"
}
layer {
  name: "pool1"
  type: "Pooling"
  bottom: "conv1"
  top: "pool1"
  pooling_param {
    pool: MAX
    kernel_size: 3
    stride: 2
  }
}
layer {
  name: "norm1"
  type: "LRN"
  bottom: "pool1"
  top: "norm1"
  lrn_param {
    local_size: 5
    alpha: 0.0001
    beta: 0.75
  }
}
layer {
  name: "conv2"
  type: "Convolution"
  bottom: "norm1"
  top: "conv2"
  param {
    lr_mult: 1
    decay_mult: 1
  }
  param {
    lr_mult: 2
    decay_mult: 0
  }
  convolution_param {
    num_output: 256
    pad: 2
    kernel_size: 5
    group: 2
    weight_filler {
      type: "gaussian"
      std: 0.01
    }
    bias_filler {
      type: "constant"
      value: 1
    }
  }
}
layer {
  name: "relu2"
  type: "ReLU"
  bottom: "conv2"
  top: "conv2"
}
layer {
  name: "pool2"
  type: "Pooling"
  bottom: "conv2"
  top: "pool2"
  pooling_param {
    pool: MAX
    kernel_size: 3
    stride: 2
  }
}
layer {
  name: "norm2"
  type: "LRN"
  bottom: "pool2"
  top: "norm2"
  lrn_param {
    local_size: 5
    alpha: 0.0001
    beta: 0.75
  }
}
layer {
  name: "conv3"
  type: "Convolution"
  bottom: "norm2"
  top: "conv3"
  param {
    lr_mult: 1
    decay_mult: 1
  }
  param {
    lr_mult: 2
    decay_mult: 0
  }
  convolution_param {
    num_output: 384
    pad: 1
    kernel_size: 3
    weight_filler {
      type: "gaussian"
      std: 0.01
    }
    bias_filler {
      type: "constant"
      value: 0
    }
  }
}
layer {
  name: "relu3"
  type: "ReLU"
  bottom: "conv3"
  top: "conv3"
}
layer {
  name: "conv4"
  type: "Convolution"
  bottom: "conv3"
  top: "conv4"
  param {
    lr_mult: 1
    decay_mult: 1
  }
  param {
    lr_mult: 2
    decay_mult: 0
  }
  convolution_param {
    num_output: 384
    pad: 1
    kernel_size: 3
    group: 2
    weight_filler {
      type: "gaussian"
      std: 0.01
    }
    bias_filler {
      type: "constant"
      value: 1
    }
  }
}
layer {
  name: "relu4"
  type: "ReLU"
  bottom: "conv4"
  top: "conv4"
}
layer {
  name: "conv5"
  type: "Convolution"
  bottom: "conv4"
  top: "conv5"
  param {
    lr_mult: 1
    decay_mult: 1
  }
  param {
    lr_mult: 2
    decay_mult: 0
  }
  convolution_param {
    num_output: 256
    pad: 1
    kernel_size: 3
    group: 2
    weight_filler {
      type: "gaussian"
      std: 0.01
    }
    bias_filler {
      type: "constant"
      value: 1
    }
  }
}
layer {
  name: "relu5"
  type: "ReLU"
  bottom: "conv5"
  top: "conv5"
}
layer {
  name: "pool5"
  type: "Pooling"
  bottom: "conv5"
  top: "pool5"
  pooling_param {
    pool: MAX
    kernel_size: 3
    stride: 2
  }
}
layer {
  name: "fc6"
  type: "InnerProduct"
  bottom: "pool5"
  top: "fc6"
  param {
    lr_mult: 1
    decay_mult: 1
  }
  param {
    lr_mult: 2
    decay_mult: 0
  }
  inner_product_param {
    num_output: 4096
    weight_filler {
      type: "gaussian"
      std: 0.005
    }
    bias_filler {
      type: "constant"
      value: 1
    }
  }
}
layer {
  name: "relu6"
  type: "ReLU"
  bottom: "fc6"
  top: "fc6"
}
layer {
  name: "drop6"
  type: "Dropout"
  bottom: "fc6"
  top: "fc6"
  dropout_param {
    dropout_ratio: 0.5
  }
}
layer {
  name: "fc7"
  type: "InnerProduct"
  bottom: "fc6"
  top: "fc7"
  param {
    lr_mult: 1
    decay_mult: 1
  }
  param {
    lr_mult: 2
    decay_mult: 0
  }
  inner_product_param {
    num_output: 4096
    weight_filler {
      type: "gaussian"
      std: 0.005
    }
    bias_filler {
      type: "constant"
      value: 1
    }
  }
}
layer {
  name: "relu7"
  type: "ReLU"
  bottom: "fc7"
  top: "fc7"
}
layer {
  name: "drop7"
  type: "Dropout"
  bottom: "fc7"
  top: "fc7"
  dropout_param {
    dropout_ratio: 0.5
  }
}
layer {
  name: "fc8_urop"
  type: "InnerProduct"
  bottom: "fc7"
  top: "fc8_urop"
  param {
    lr_mult: 10
    decay_mult: 1
  }
  param {
    lr_mult: 20
    decay_mult: 0
  }
  inner_product_param {
    num_output: 10
    weight_filler {
      type: "gaussian"
      std: 0.01
    }
    bias_filler {
      type: "constant"
      value: 0
    }
  }
}
layer {
  name: "accuracy"
  type: "Accuracy"
  bottom: "fc8_urop"
  bottom: "label"
  top: "accuracy"
}
layer {
  name: "loss"
  type: "SoftmaxWithLoss"
  bottom: "fc8_urop"
  bottom: "label"
  top: "loss"
}
I0422 11:44:46.860438 25291 layer_factory.hpp:77] Creating layer data
I0422 11:44:46.860462 25291 net.cpp:106] Creating Layer data
I0422 11:44:46.860466 25291 net.cpp:411] data -> data
I0422 11:44:46.860481 25291 net.cpp:411] data -> label
I0422 11:44:46.860489 25291 data_transformer.cpp:25] Loading mean file from: data/ilsvrc12/imagenet_mean.binaryproto
I0422 11:44:46.867189 25291 image_data_layer.cpp:38] Opening file urop/dance/original/train.txt
I0422 11:44:46.923161 25291 image_data_layer.cpp:48] Shuffling data
I0422 11:44:46.944281 25291 image_data_layer.cpp:53] A total of 174163 images.
I0422 11:44:46.944872 25291 image_data_layer.cpp:80] output data size: 256,3,227,227
I0422 11:44:47.093871 25291 net.cpp:150] Setting up data
I0422 11:44:47.093893 25291 net.cpp:157] Top shape: 256 3 227 227 (39574272)
I0422 11:44:47.093897 25291 net.cpp:157] Top shape: 256 (256)
I0422 11:44:47.093899 25291 net.cpp:165] Memory required for data: 158298112
I0422 11:44:47.093904 25291 layer_factory.hpp:77] Creating layer label_data_1_split
I0422 11:44:47.093915 25291 net.cpp:106] Creating Layer label_data_1_split
I0422 11:44:47.093921 25291 net.cpp:454] label_data_1_split <- label
I0422 11:44:47.093933 25291 net.cpp:411] label_data_1_split -> label_data_1_split_0
I0422 11:44:47.093950 25291 net.cpp:411] label_data_1_split -> label_data_1_split_1
I0422 11:44:47.093986 25291 net.cpp:150] Setting up label_data_1_split
I0422 11:44:47.093993 25291 net.cpp:157] Top shape: 256 (256)
I0422 11:44:47.093998 25291 net.cpp:157] Top shape: 256 (256)
I0422 11:44:47.094002 25291 net.cpp:165] Memory required for data: 158300160
I0422 11:44:47.094004 25291 layer_factory.hpp:77] Creating layer conv1
I0422 11:44:47.094018 25291 net.cpp:106] Creating Layer conv1
I0422 11:44:47.094022 25291 net.cpp:454] conv1 <- data
I0422 11:44:47.094028 25291 net.cpp:411] conv1 -> conv1
I0422 11:44:47.095625 25291 net.cpp:150] Setting up conv1
I0422 11:44:47.095635 25291 net.cpp:157] Top shape: 256 96 55 55 (74342400)
I0422 11:44:47.095638 25291 net.cpp:165] Memory required for data: 455669760
I0422 11:44:47.095654 25291 layer_factory.hpp:77] Creating layer relu1
I0422 11:44:47.095661 25291 net.cpp:106] Creating Layer relu1
I0422 11:44:47.095665 25291 net.cpp:454] relu1 <- conv1
I0422 11:44:47.095676 25291 net.cpp:397] relu1 -> conv1 (in-place)
I0422 11:44:47.095687 25291 net.cpp:150] Setting up relu1
I0422 11:44:47.095692 25291 net.cpp:157] Top shape: 256 96 55 55 (74342400)
I0422 11:44:47.095710 25291 net.cpp:165] Memory required for data: 753039360
I0422 11:44:47.095713 25291 layer_factory.hpp:77] Creating layer pool1
I0422 11:44:47.095721 25291 net.cpp:106] Creating Layer pool1
I0422 11:44:47.095724 25291 net.cpp:454] pool1 <- conv1
I0422 11:44:47.095729 25291 net.cpp:411] pool1 -> pool1
I0422 11:44:47.111140 25291 net.cpp:150] Setting up pool1
I0422 11:44:47.111156 25291 net.cpp:157] Top shape: 256 96 27 27 (17915904)
I0422 11:44:47.111161 25291 net.cpp:165] Memory required for data: 824702976
I0422 11:44:47.111166 25291 layer_factory.hpp:77] Creating layer norm1
I0422 11:44:47.111176 25291 net.cpp:106] Creating Layer norm1
I0422 11:44:47.111181 25291 net.cpp:454] norm1 <- pool1
I0422 11:44:47.111187 25291 net.cpp:411] norm1 -> norm1
I0422 11:44:47.111217 25291 net.cpp:150] Setting up norm1
I0422 11:44:47.111222 25291 net.cpp:157] Top shape: 256 96 27 27 (17915904)
I0422 11:44:47.111227 25291 net.cpp:165] Memory required for data: 896366592
I0422 11:44:47.111229 25291 layer_factory.hpp:77] Creating layer conv2
I0422 11:44:47.111239 25291 net.cpp:106] Creating Layer conv2
I0422 11:44:47.111244 25291 net.cpp:454] conv2 <- norm1
I0422 11:44:47.111250 25291 net.cpp:411] conv2 -> conv2
I0422 11:44:47.118273 25291 net.cpp:150] Setting up conv2
I0422 11:44:47.118288 25291 net.cpp:157] Top shape: 256 256 27 27 (47775744)
I0422 11:44:47.118293 25291 net.cpp:165] Memory required for data: 1087469568
I0422 11:44:47.118304 25291 layer_factory.hpp:77] Creating layer relu2
I0422 11:44:47.118312 25291 net.cpp:106] Creating Layer relu2
I0422 11:44:47.118316 25291 net.cpp:454] relu2 <- conv2
I0422 11:44:47.118322 25291 net.cpp:397] relu2 -> conv2 (in-place)
I0422 11:44:47.118330 25291 net.cpp:150] Setting up relu2
I0422 11:44:47.118337 25291 net.cpp:157] Top shape: 256 256 27 27 (47775744)
I0422 11:44:47.118340 25291 net.cpp:165] Memory required for data: 1278572544
I0422 11:44:47.118343 25291 layer_factory.hpp:77] Creating layer pool2
I0422 11:44:47.118351 25291 net.cpp:106] Creating Layer pool2
I0422 11:44:47.118357 25291 net.cpp:454] pool2 <- conv2
I0422 11:44:47.118362 25291 net.cpp:411] pool2 -> pool2
I0422 11:44:47.118393 25291 net.cpp:150] Setting up pool2
I0422 11:44:47.118398 25291 net.cpp:157] Top shape: 256 256 13 13 (11075584)
I0422 11:44:47.118402 25291 net.cpp:165] Memory required for data: 1322874880
I0422 11:44:47.118405 25291 layer_factory.hpp:77] Creating layer norm2
I0422 11:44:47.118412 25291 net.cpp:106] Creating Layer norm2
I0422 11:44:47.118414 25291 net.cpp:454] norm2 <- pool2
I0422 11:44:47.118420 25291 net.cpp:411] norm2 -> norm2
I0422 11:44:47.118443 25291 net.cpp:150] Setting up norm2
I0422 11:44:47.118448 25291 net.cpp:157] Top shape: 256 256 13 13 (11075584)
I0422 11:44:47.118451 25291 net.cpp:165] Memory required for data: 1367177216
I0422 11:44:47.118454 25291 layer_factory.hpp:77] Creating layer conv3
I0422 11:44:47.118463 25291 net.cpp:106] Creating Layer conv3
I0422 11:44:47.118468 25291 net.cpp:454] conv3 <- norm2
I0422 11:44:47.118474 25291 net.cpp:411] conv3 -> conv3
I0422 11:44:47.137043 25291 net.cpp:150] Setting up conv3
I0422 11:44:47.137061 25291 net.cpp:157] Top shape: 256 384 13 13 (16613376)
I0422 11:44:47.137065 25291 net.cpp:165] Memory required for data: 1433630720
I0422 11:44:47.137076 25291 layer_factory.hpp:77] Creating layer relu3
I0422 11:44:47.137084 25291 net.cpp:106] Creating Layer relu3
I0422 11:44:47.137089 25291 net.cpp:454] relu3 <- conv3
I0422 11:44:47.137095 25291 net.cpp:397] relu3 -> conv3 (in-place)
I0422 11:44:47.137104 25291 net.cpp:150] Setting up relu3
I0422 11:44:47.137109 25291 net.cpp:157] Top shape: 256 384 13 13 (16613376)
I0422 11:44:47.137114 25291 net.cpp:165] Memory required for data: 1500084224
I0422 11:44:47.137116 25291 layer_factory.hpp:77] Creating layer conv4
I0422 11:44:47.137126 25291 net.cpp:106] Creating Layer conv4
I0422 11:44:47.137130 25291 net.cpp:454] conv4 <- conv3
I0422 11:44:47.137137 25291 net.cpp:411] conv4 -> conv4
I0422 11:44:47.151190 25291 net.cpp:150] Setting up conv4
I0422 11:44:47.151221 25291 net.cpp:157] Top shape: 256 384 13 13 (16613376)
I0422 11:44:47.151223 25291 net.cpp:165] Memory required for data: 1566537728
I0422 11:44:47.151232 25291 layer_factory.hpp:77] Creating layer relu4
I0422 11:44:47.151238 25291 net.cpp:106] Creating Layer relu4
I0422 11:44:47.151242 25291 net.cpp:454] relu4 <- conv4
I0422 11:44:47.151249 25291 net.cpp:397] relu4 -> conv4 (in-place)
I0422 11:44:47.151257 25291 net.cpp:150] Setting up relu4
I0422 11:44:47.151265 25291 net.cpp:157] Top shape: 256 384 13 13 (16613376)
I0422 11:44:47.151268 25291 net.cpp:165] Memory required for data: 1632991232
I0422 11:44:47.151273 25291 layer_factory.hpp:77] Creating layer conv5
I0422 11:44:47.151283 25291 net.cpp:106] Creating Layer conv5
I0422 11:44:47.151286 25291 net.cpp:454] conv5 <- conv4
I0422 11:44:47.151294 25291 net.cpp:411] conv5 -> conv5
I0422 11:44:47.161303 25291 net.cpp:150] Setting up conv5
I0422 11:44:47.161319 25291 net.cpp:157] Top shape: 256 256 13 13 (11075584)
I0422 11:44:47.161324 25291 net.cpp:165] Memory required for data: 1677293568
I0422 11:44:47.161336 25291 layer_factory.hpp:77] Creating layer relu5
I0422 11:44:47.161345 25291 net.cpp:106] Creating Layer relu5
I0422 11:44:47.161350 25291 net.cpp:454] relu5 <- conv5
I0422 11:44:47.161358 25291 net.cpp:397] relu5 -> conv5 (in-place)
I0422 11:44:47.161366 25291 net.cpp:150] Setting up relu5
I0422 11:44:47.161372 25291 net.cpp:157] Top shape: 256 256 13 13 (11075584)
I0422 11:44:47.161375 25291 net.cpp:165] Memory required for data: 1721595904
I0422 11:44:47.161380 25291 layer_factory.hpp:77] Creating layer pool5
I0422 11:44:47.161387 25291 net.cpp:106] Creating Layer pool5
I0422 11:44:47.161392 25291 net.cpp:454] pool5 <- conv5
I0422 11:44:47.161397 25291 net.cpp:411] pool5 -> pool5
I0422 11:44:47.161432 25291 net.cpp:150] Setting up pool5
I0422 11:44:47.161437 25291 net.cpp:157] Top shape: 256 256 6 6 (2359296)
I0422 11:44:47.161440 25291 net.cpp:165] Memory required for data: 1731033088
I0422 11:44:47.161444 25291 layer_factory.hpp:77] Creating layer fc6
I0422 11:44:47.161453 25291 net.cpp:106] Creating Layer fc6
I0422 11:44:47.161455 25291 net.cpp:454] fc6 <- pool5
I0422 11:44:47.161461 25291 net.cpp:411] fc6 -> fc6
I0422 11:44:47.955276 25291 net.cpp:150] Setting up fc6
I0422 11:44:47.955297 25291 net.cpp:157] Top shape: 256 4096 (1048576)
I0422 11:44:47.955301 25291 net.cpp:165] Memory required for data: 1735227392
I0422 11:44:47.955308 25291 layer_factory.hpp:77] Creating layer relu6
I0422 11:44:47.955317 25291 net.cpp:106] Creating Layer relu6
I0422 11:44:47.955323 25291 net.cpp:454] relu6 <- fc6
I0422 11:44:47.955329 25291 net.cpp:397] relu6 -> fc6 (in-place)
I0422 11:44:47.955335 25291 net.cpp:150] Setting up relu6
I0422 11:44:47.955338 25291 net.cpp:157] Top shape: 256 4096 (1048576)
I0422 11:44:47.955340 25291 net.cpp:165] Memory required for data: 1739421696
I0422 11:44:47.955343 25291 layer_factory.hpp:77] Creating layer drop6
I0422 11:44:47.955348 25291 net.cpp:106] Creating Layer drop6
I0422 11:44:47.955350 25291 net.cpp:454] drop6 <- fc6
I0422 11:44:47.955353 25291 net.cpp:397] drop6 -> fc6 (in-place)
I0422 11:44:47.955368 25291 net.cpp:150] Setting up drop6
I0422 11:44:47.955371 25291 net.cpp:157] Top shape: 256 4096 (1048576)
I0422 11:44:47.955374 25291 net.cpp:165] Memory required for data: 1743616000
I0422 11:44:47.955375 25291 layer_factory.hpp:77] Creating layer fc7
I0422 11:44:47.955380 25291 net.cpp:106] Creating Layer fc7
I0422 11:44:47.955382 25291 net.cpp:454] fc7 <- fc6
I0422 11:44:47.955386 25291 net.cpp:411] fc7 -> fc7
I0422 11:44:48.311265 25291 net.cpp:150] Setting up fc7
I0422 11:44:48.311295 25291 net.cpp:157] Top shape: 256 4096 (1048576)
I0422 11:44:48.311298 25291 net.cpp:165] Memory required for data: 1747810304
I0422 11:44:48.311305 25291 layer_factory.hpp:77] Creating layer relu7
I0422 11:44:48.311311 25291 net.cpp:106] Creating Layer relu7
I0422 11:44:48.311313 25291 net.cpp:454] relu7 <- fc7
I0422 11:44:48.311318 25291 net.cpp:397] relu7 -> fc7 (in-place)
I0422 11:44:48.311326 25291 net.cpp:150] Setting up relu7
I0422 11:44:48.311341 25291 net.cpp:157] Top shape: 256 4096 (1048576)
I0422 11:44:48.311342 25291 net.cpp:165] Memory required for data: 1752004608
I0422 11:44:48.311344 25291 layer_factory.hpp:77] Creating layer drop7
I0422 11:44:48.311348 25291 net.cpp:106] Creating Layer drop7
I0422 11:44:48.311350 25291 net.cpp:454] drop7 <- fc7
I0422 11:44:48.311353 25291 net.cpp:397] drop7 -> fc7 (in-place)
I0422 11:44:48.311367 25291 net.cpp:150] Setting up drop7
I0422 11:44:48.311372 25291 net.cpp:157] Top shape: 256 4096 (1048576)
I0422 11:44:48.311374 25291 net.cpp:165] Memory required for data: 1756198912
I0422 11:44:48.311378 25291 layer_factory.hpp:77] Creating layer fc8_urop
I0422 11:44:48.311385 25291 net.cpp:106] Creating Layer fc8_urop
I0422 11:44:48.311390 25291 net.cpp:454] fc8_urop <- fc7
I0422 11:44:48.311398 25291 net.cpp:411] fc8_urop -> fc8_urop
I0422 11:44:48.312295 25291 net.cpp:150] Setting up fc8_urop
I0422 11:44:48.312302 25291 net.cpp:157] Top shape: 256 10 (2560)
I0422 11:44:48.312305 25291 net.cpp:165] Memory required for data: 1756209152
I0422 11:44:48.312311 25291 layer_factory.hpp:77] Creating layer fc8_urop_fc8_urop_0_split
I0422 11:44:48.312317 25291 net.cpp:106] Creating Layer fc8_urop_fc8_urop_0_split
I0422 11:44:48.312320 25291 net.cpp:454] fc8_urop_fc8_urop_0_split <- fc8_urop
I0422 11:44:48.312327 25291 net.cpp:411] fc8_urop_fc8_urop_0_split -> fc8_urop_fc8_urop_0_split_0
I0422 11:44:48.312335 25291 net.cpp:411] fc8_urop_fc8_urop_0_split -> fc8_urop_fc8_urop_0_split_1
I0422 11:44:48.312364 25291 net.cpp:150] Setting up fc8_urop_fc8_urop_0_split
I0422 11:44:48.312371 25291 net.cpp:157] Top shape: 256 10 (2560)
I0422 11:44:48.312374 25291 net.cpp:157] Top shape: 256 10 (2560)
I0422 11:44:48.312377 25291 net.cpp:165] Memory required for data: 1756229632
I0422 11:44:48.312381 25291 layer_factory.hpp:77] Creating layer accuracy
I0422 11:44:48.312387 25291 net.cpp:106] Creating Layer accuracy
I0422 11:44:48.312391 25291 net.cpp:454] accuracy <- fc8_urop_fc8_urop_0_split_0
I0422 11:44:48.312397 25291 net.cpp:454] accuracy <- label_data_1_split_0
I0422 11:44:48.312402 25291 net.cpp:411] accuracy -> accuracy
…
I0422 11:44:48.313218 25291 net.cpp:322] The NetState phase (1) differed from the phase (0) specified by a rule in layer data
I0422 11:44:48.313341 25291 net.cpp:49] Initializing net from parameters: 
name: "UROP-CaffeNet"
state {
  phase: TEST
}
layer {
  name: "data"
  type: "ImageData"
  top: "data"
  top: "label"
  include {
    phase: TEST
  }
  transform_param {
    mirror: false
    crop_size: 227
    mean_file: "data/ilsvrc12/imagenet_mean.binaryproto"
  }
  image_data_param {
    source: "urop/dance/original/val.txt"
    batch_size: 50
    shuffle: true
  }
}
layer {
  name: "conv1"
  type: "Convolution"
  bottom: "data"
  top: "conv1"
  param {
    lr_mult: 1
    decay_mult: 1
  }
  param {
    lr_mult: 2
    decay_mult: 0
  }
  convolution_param {
    num_output: 96
    kernel_size: 11
    stride: 4
    weight_filler {
      type: "gaussian"
      std: 0.01
    }
    bias_filler {
      type: "constant"
      value: 0
    }
  }
}
layer {
  name: "relu1"
  type: "ReLU"
  bottom: "conv1"
  top: "conv1"
}
layer {
  name: "pool1"
  type: "Pooling"
  bottom: "conv1"
  top: "pool1"
  pooling_param {
    pool: MAX
    kernel_size: 3
    stride: 2
  }
}
layer {
  name: "norm1"
  type: "LRN"
  bottom: "pool1"
  top: "norm1"
  lrn_param {
    local_size: 5
    alpha: 0.0001
    beta: 0.75
  }
}
layer {
  name: "conv2"
  type: "Convolution"
  bottom: "norm1"
  top: "conv2"
  param {
    lr_mult: 1
    decay_mult: 1
  }
  param {
    lr_mult: 2
    decay_mult: 0
  }
  convolution_param {
    num_output: 256
    pad: 2
    kernel_size: 5
    group: 2
    weight_filler {
      type: "gaussian"
      std: 0.01
    }
    bias_filler {
      type: "constant"
      value: 1
    }
  }
}
layer {
  name: "relu2"
  type: "ReLU"
  bottom: "conv2"
  top: "conv2"
}
layer {
  name: "pool2"
  type: "Pooling"
  bottom: "conv2"
  top: "pool2"
  pooling_param {
    pool: MAX
    kernel_size: 3
    stride: 2
  }
}
layer {
  name: "norm2"
  type: "LRN"
  bottom: "pool2"
  top: "norm2"
  lrn_param {
    local_size: 5
    alpha: 0.0001
    beta: 0.75
  }
}
layer {
  name: "conv3"
  type: "Convolution"
  bottom: "norm2"
  top: "conv3"
  param {
    lr_mult: 1
    decay_mult: 1
  }
  param {
    lr_mult: 2
    decay_mult: 0
  }
  convolution_param {
    num_output: 384
    pad: 1
    kernel_size: 3
    weight_filler {
      type: "gaussian"
      std: 0.01
    }
    bias_filler {
      type: "constant"
      value: 0
    }
  }
}
layer {
  name: "relu3"
  type: "ReLU"
  bottom: "conv3"
  top: "conv3"
}
layer {
  name: "conv4"
  type: "Convolution"
  bottom: "conv3"
  top: "conv4"
  param {
    lr_mult: 1
    decay_mult: 1
  }
  param {
    lr_mult: 2
    decay_mult: 0
  }
  convolution_param {
    num_output: 384
    pad: 1
    kernel_size: 3
    group: 2
    weight_filler {
      type: "gaussian"
      std: 0.01
    }
    bias_filler {
      type: "constant"
      value: 1
    }
  }
}
layer {
  name: "relu4"
  type: "ReLU"
  bottom: "conv4"
  top: "conv4"
}
layer {
  name: "conv5"
  type: "Convolution"
  bottom: "conv4"
  top: "conv5"
  param {
    lr_mult: 1
    decay_mult: 1
  }
  param {
    lr_mult: 2
    decay_mult: 0
  }
  convolution_param {
    num_output: 256
    pad: 1
    kernel_size: 3
    group: 2
    weight_filler {
      type: "gaussian"
      std: 0.01
    }
    bias_filler {
      type: "constant"
      value: 1
    }
  }
}
layer {
  name: "relu5"
  type: "ReLU"
  bottom: "conv5"
  top: "conv5"
}
layer {
  name: "pool5"
  type: "Pooling"
  bottom: "conv5"
  top: "pool5"
  pooling_param {
    pool: MAX
    kernel_size: 3
    stride: 2
  }
}
layer {
  name: "fc6"
  type: "InnerProduct"
  bottom: "pool5"
  top: "fc6"
  param {
    lr_mult: 1
    decay_mult: 1
  }
  param {
    lr_mult: 2
    decay_mult: 0
  }
  inner_product_param {
    num_output: 4096
    weight_filler {
      type: "gaussian"
      std: 0.005
    }
    bias_filler {
      type: "constant"
      value: 1
    }
  }
}
layer {
  name: "relu6"
  type: "ReLU"
  bottom: "fc6"
  top: "fc6"
}
layer {
  name: "drop6"
  type: "Dropout"
  bottom: "fc6"
  top: "fc6"
  dropout_param {
    dropout_ratio: 0.5
  }
}
layer {
  name: "fc7"
  type: "InnerProduct"
  bottom: "fc6"
  top: "fc7"
  param {
    lr_mult: 1
    decay_mult: 1
  }
  param {
    lr_mult: 2
    decay_mult: 0
  }
  inner_product_param {
    num_output: 4096
    weight_filler {
      type: "gaussian"
      std: 0.005
    }
    bias_filler {
      type: "constant"
      value: 1
    }
  }
}
layer {
  name: "relu7"
  type: "ReLU"
  bottom: "fc7"
  top: "fc7"
}
layer {
  name: "drop7"
  type: "Dropout"
  bottom: "fc7"
  top: "fc7"
  dropout_param {
    dropout_ratio: 0.5
  }
}
layer {
  name: "fc8_urop"
  type: "InnerProduct"
  bottom: "fc7"
  top: "fc8_urop"
  param {
    lr_mult: 10
    decay_mult: 1
  }
  param {
    lr_mult: 20
    decay_mult: 0
  }
  inner_product_param {
    num_output: 10
    weight_filler {
      type: "gaussian"
      std: 0.01
    }
    bias_filler {
      type: "constant"
      value: 0
    }
  }
}
layer {
  name: "accuracy"
  type: "Accuracy"
  bottom: "fc8_urop"
  bottom: "label"
  top: "accuracy"
}
layer {
  name: "loss"
  type: "SoftmaxWithLoss"
  bottom: "fc8_urop"
  bottom: "label"
  top: "loss"
}
I0422 11:44:48.313462 25291 layer_factory.hpp:77] Creating layer data
I0422 11:44:48.313472 25291 net.cpp:106] Creating Layer data
I0422 11:44:48.313477 25291 net.cpp:411] data -> data
I0422 11:44:48.313485 25291 net.cpp:411] data -> label
I0422 11:44:48.313493 25291 data_transformer.cpp:25] Loading mean file from: data/ilsvrc12/imagenet_mean.binaryproto
I0422 11:44:48.315148 25291 image_data_layer.cpp:38] Opening file urop/dance/original/val.txt
I0422 11:44:48.338624 25291 image_data_layer.cpp:48] Shuffling data
I0422 11:44:48.344854 25291 image_data_layer.cpp:53] A total of 75820 images.
I0422 11:44:48.345369 25291 image_data_layer.cpp:80] output data size: 50,3,227,227
I0422 11:44:48.374053 25291 net.cpp:150] Setting up data
I0422 11:44:48.374102 25291 net.cpp:157] Top shape: 50 3 227 227 (7729350)
I0422 11:44:48.374119 25291 net.cpp:157] Top shape: 50 (50)
I0422 11:44:48.374133 25291 net.cpp:165] Memory required for data: 30917600
I0422 11:44:48.374147 25291 layer_factory.hpp:77] Creating layer label_data_1_split
I0422 11:44:48.374171 25291 net.cpp:106] Creating Layer label_data_1_split
I0422 11:44:48.374186 25291 net.cpp:454] label_data_1_split <- label
I0422 11:44:48.374203 25291 net.cpp:411] label_data_1_split -> label_data_1_split_0
I0422 11:44:48.374222 25291 net.cpp:411] label_data_1_split -> label_data_1_split_1
I0422 11:44:48.374270 25291 net.cpp:150] Setting up label_data_1_split
I0422 11:44:48.374289 25291 net.cpp:157] Top shape: 50 (50)
I0422 11:44:48.374305 25291 net.cpp:157] Top shape: 50 (50)
I0422 11:44:48.374325 25291 net.cpp:165] Memory required for data: 30918000
I0422 11:44:48.374351 25291 layer_factory.hpp:77] Creating layer conv1
I0422 11:44:48.374373 25291 net.cpp:106] Creating Layer conv1
I0422 11:44:48.374388 25291 net.cpp:454] conv1 <- data
I0422 11:44:48.374408 25291 net.cpp:411] conv1 -> conv1
I0422 11:44:48.375391 25291 net.cpp:150] Setting up conv1
I0422 11:44:48.375401 25291 net.cpp:157] Top shape: 50 96 55 55 (14520000)
I0422 11:44:48.375404 25291 net.cpp:165] Memory required for data: 88998000
I0422 11:44:48.375414 25291 layer_factory.hpp:77] Creating layer relu1
I0422 11:44:48.375422 25291 net.cpp:106] Creating Layer relu1
I0422 11:44:48.375427 25291 net.cpp:454] relu1 <- conv1
I0422 11:44:48.375432 25291 net.cpp:397] relu1 -> conv1 (in-place)
I0422 11:44:48.375440 25291 net.cpp:150] Setting up relu1
I0422 11:44:48.375445 25291 net.cpp:157] Top shape: 50 96 55 55 (14520000)
I0422 11:44:48.375449 25291 net.cpp:165] Memory required for data: 147078000
I0422 11:44:48.375453 25291 layer_factory.hpp:77] Creating layer pool1
I0422 11:44:48.375460 25291 net.cpp:106] Creating Layer pool1
I0422 11:44:48.375463 25291 net.cpp:454] pool1 <- conv1
I0422 11:44:48.375469 25291 net.cpp:411] pool1 -> pool1
I0422 11:44:48.378509 25291 net.cpp:150] Setting up pool1
I0422 11:44:48.378521 25291 net.cpp:157] Top shape: 50 96 27 27 (3499200)
I0422 11:44:48.378525 25291 net.cpp:165] Memory required for data: 161074800
I0422 11:44:48.378528 25291 layer_factory.hpp:77] Creating layer norm1
I0422 11:44:48.378535 25291 net.cpp:106] Creating Layer norm1
I0422 11:44:48.378540 25291 net.cpp:454] norm1 <- pool1
I0422 11:44:48.378547 25291 net.cpp:411] norm1 -> norm1
I0422 11:44:48.378574 25291 net.cpp:150] Setting up norm1
I0422 11:44:48.378579 25291 net.cpp:157] Top shape: 50 96 27 27 (3499200)
I0422 11:44:48.378593 25291 net.cpp:165] Memory required for data: 175071600
I0422 11:44:48.378597 25291 layer_factory.hpp:77] Creating layer conv2
I0422 11:44:48.378607 25291 net.cpp:106] Creating Layer conv2
I0422 11:44:48.378610 25291 net.cpp:454] conv2 <- norm1
I0422 11:44:48.378617 25291 net.cpp:411] conv2 -> conv2
I0422 11:44:48.385299 25291 net.cpp:150] Setting up conv2
I0422 11:44:48.385310 25291 net.cpp:157] Top shape: 50 256 27 27 (9331200)
I0422 11:44:48.385313 25291 net.cpp:165] Memory required for data: 212396400
I0422 11:44:48.385324 25291 layer_factory.hpp:77] Creating layer relu2
I0422 11:44:48.385334 25291 net.cpp:106] Creating Layer relu2
I0422 11:44:48.385337 25291 net.cpp:454] relu2 <- conv2
I0422 11:44:48.385344 25291 net.cpp:397] relu2 -> conv2 (in-place)
I0422 11:44:48.385351 25291 net.cpp:150] Setting up relu2
I0422 11:44:48.385357 25291 net.cpp:157] Top shape: 50 256 27 27 (9331200)
I0422 11:44:48.385361 25291 net.cpp:165] Memory required for data: 249721200
I0422 11:44:48.385365 25291 layer_factory.hpp:77] Creating layer pool2
I0422 11:44:48.385373 25291 net.cpp:106] Creating Layer pool2
I0422 11:44:48.385376 25291 net.cpp:454] pool2 <- conv2
I0422 11:44:48.385382 25291 net.cpp:411] pool2 -> pool2
I0422 11:44:48.385411 25291 net.cpp:150] Setting up pool2
I0422 11:44:48.385416 25291 net.cpp:157] Top shape: 50 256 13 13 (2163200)
I0422 11:44:48.385419 25291 net.cpp:165] Memory required for data: 258374000
I0422 11:44:48.385422 25291 layer_factory.hpp:77] Creating layer norm2
I0422 11:44:48.385429 25291 net.cpp:106] Creating Layer norm2
I0422 11:44:48.385433 25291 net.cpp:454] norm2 <- pool2
I0422 11:44:48.385438 25291 net.cpp:411] norm2 -> norm2
I0422 11:44:48.385460 25291 net.cpp:150] Setting up norm2
I0422 11:44:48.385465 25291 net.cpp:157] Top shape: 50 256 13 13 (2163200)
I0422 11:44:48.385470 25291 net.cpp:165] Memory required for data: 267026800
I0422 11:44:48.385473 25291 layer_factory.hpp:77] Creating layer conv3
I0422 11:44:48.385483 25291 net.cpp:106] Creating Layer conv3
I0422 11:44:48.385486 25291 net.cpp:454] conv3 <- norm2
I0422 11:44:48.385493 25291 net.cpp:411] conv3 -> conv3
I0422 11:44:48.404111 25291 net.cpp:150] Setting up conv3
I0422 11:44:48.404124 25291 net.cpp:157] Top shape: 50 384 13 13 (3244800)
I0422 11:44:48.404145 25291 net.cpp:165] Memory required for data: 280006000
I0422 11:44:48.404156 25291 layer_factory.hpp:77] Creating layer relu3
I0422 11:44:48.404165 25291 net.cpp:106] Creating Layer relu3
I0422 11:44:48.404178 25291 net.cpp:454] relu3 <- conv3
I0422 11:44:48.404186 25291 net.cpp:397] relu3 -> conv3 (in-place)
I0422 11:44:48.404199 25291 net.cpp:150] Setting up relu3
I0422 11:44:48.404204 25291 net.cpp:157] Top shape: 50 384 13 13 (3244800)
I0422 11:44:48.404208 25291 net.cpp:165] Memory required for data: 292985200
I0422 11:44:48.404211 25291 layer_factory.hpp:77] Creating layer conv4
I0422 11:44:48.404227 25291 net.cpp:106] Creating Layer conv4
I0422 11:44:48.404229 25291 net.cpp:454] conv4 <- conv3
I0422 11:44:48.404237 25291 net.cpp:411] conv4 -> conv4
I0422 11:44:48.418261 25291 net.cpp:150] Setting up conv4
I0422 11:44:48.418270 25291 net.cpp:157] Top shape: 50 384 13 13 (3244800)
I0422 11:44:48.418272 25291 net.cpp:165] Memory required for data: 305964400
I0422 11:44:48.418277 25291 layer_factory.hpp:77] Creating layer relu4
I0422 11:44:48.418282 25291 net.cpp:106] Creating Layer relu4
I0422 11:44:48.418284 25291 net.cpp:454] relu4 <- conv4
I0422 11:44:48.418287 25291 net.cpp:397] relu4 -> conv4 (in-place)
I0422 11:44:48.418292 25291 net.cpp:150] Setting up relu4
I0422 11:44:48.418294 25291 net.cpp:157] Top shape: 50 384 13 13 (3244800)
I0422 11:44:48.418297 25291 net.cpp:165] Memory required for data: 318943600
I0422 11:44:48.418299 25291 layer_factory.hpp:77] Creating layer conv5
I0422 11:44:48.418305 25291 net.cpp:106] Creating Layer conv5
I0422 11:44:48.418308 25291 net.cpp:454] conv5 <- conv4
I0422 11:44:48.418310 25291 net.cpp:411] conv5 -> conv5
I0422 11:44:48.429659 25291 net.cpp:150] Setting up conv5
I0422 11:44:48.429669 25291 net.cpp:157] Top shape: 50 256 13 13 (2163200)
I0422 11:44:48.429672 25291 net.cpp:165] Memory required for data: 327596400
I0422 11:44:48.429680 25291 layer_factory.hpp:77] Creating layer relu5
I0422 11:44:48.429685 25291 net.cpp:106] Creating Layer relu5
I0422 11:44:48.429687 25291 net.cpp:454] relu5 <- conv5
I0422 11:44:48.429692 25291 net.cpp:397] relu5 -> conv5 (in-place)
I0422 11:44:48.429695 25291 net.cpp:150] Setting up relu5
I0422 11:44:48.429698 25291 net.cpp:157] Top shape: 50 256 13 13 (2163200)
I0422 11:44:48.429700 25291 net.cpp:165] Memory required for data: 336249200
I0422 11:44:48.429702 25291 layer_factory.hpp:77] Creating layer pool5
I0422 11:44:48.429708 25291 net.cpp:106] Creating Layer pool5
I0422 11:44:48.429708 25291 net.cpp:454] pool5 <- conv5
I0422 11:44:48.429713 25291 net.cpp:411] pool5 -> pool5
I0422 11:44:48.429735 25291 net.cpp:150] Setting up pool5
I0422 11:44:48.429739 25291 net.cpp:157] Top shape: 50 256 6 6 (460800)
I0422 11:44:48.429740 25291 net.cpp:165] Memory required for data: 338092400
I0422 11:44:48.429743 25291 layer_factory.hpp:77] Creating layer fc6
I0422 11:44:48.429749 25291 net.cpp:106] Creating Layer fc6
I0422 11:44:48.429750 25291 net.cpp:454] fc6 <- pool5
I0422 11:44:48.429754 25291 net.cpp:411] fc6 -> fc6
I0422 11:44:49.229864 25291 net.cpp:150] Setting up fc6
I0422 11:44:49.229882 25291 net.cpp:157] Top shape: 50 4096 (204800)
I0422 11:44:49.229884 25291 net.cpp:165] Memory required for data: 338911600
I0422 11:44:49.229889 25291 layer_factory.hpp:77] Creating layer relu6
I0422 11:44:49.229897 25291 net.cpp:106] Creating Layer relu6
I0422 11:44:49.229900 25291 net.cpp:454] relu6 <- fc6
I0422 11:44:49.229904 25291 net.cpp:397] relu6 -> fc6 (in-place)
I0422 11:44:49.229909 25291 net.cpp:150] Setting up relu6
I0422 11:44:49.229912 25291 net.cpp:157] Top shape: 50 4096 (204800)
I0422 11:44:49.229914 25291 net.cpp:165] Memory required for data: 339730800
I0422 11:44:49.229917 25291 layer_factory.hpp:77] Creating layer drop6
I0422 11:44:49.229920 25291 net.cpp:106] Creating Layer drop6
I0422 11:44:49.229923 25291 net.cpp:454] drop6 <- fc6
I0422 11:44:49.229925 25291 net.cpp:397] drop6 -> fc6 (in-place)
I0422 11:44:49.229946 25291 net.cpp:150] Setting up drop6
I0422 11:44:49.229954 25291 net.cpp:157] Top shape: 50 4096 (204800)
I0422 11:44:49.229970 25291 net.cpp:165] Memory required for data: 340550000
I0422 11:44:49.229974 25291 layer_factory.hpp:77] Creating layer fc7
I0422 11:44:49.229990 25291 net.cpp:106] Creating Layer fc7
I0422 11:44:49.229995 25291 net.cpp:454] fc7 <- fc6
I0422 11:44:49.230000 25291 net.cpp:411] fc7 -> fc7
I0422 11:44:49.579592 25291 net.cpp:150] Setting up fc7
I0422 11:44:49.579609 25291 net.cpp:157] Top shape: 50 4096 (204800)
I0422 11:44:49.579612 25291 net.cpp:165] Memory required for data: 341369200
I0422 11:44:49.579620 25291 layer_factory.hpp:77] Creating layer relu7
I0422 11:44:49.579628 25291 net.cpp:106] Creating Layer relu7
I0422 11:44:49.579633 25291 net.cpp:454] relu7 <- fc7
I0422 11:44:49.579639 25291 net.cpp:397] relu7 -> fc7 (in-place)
I0422 11:44:49.579648 25291 net.cpp:150] Setting up relu7
I0422 11:44:49.579653 25291 net.cpp:157] Top shape: 50 4096 (204800)
I0422 11:44:49.579655 25291 net.cpp:165] Memory required for data: 342188400
I0422 11:44:49.579659 25291 layer_factory.hpp:77] Creating layer drop7
I0422 11:44:49.579666 25291 net.cpp:106] Creating Layer drop7
I0422 11:44:49.579674 25291 net.cpp:454] drop7 <- fc7
I0422 11:44:49.579679 25291 net.cpp:397] drop7 -> fc7 (in-place)
I0422 11:44:49.579701 25291 net.cpp:150] Setting up drop7
I0422 11:44:49.579707 25291 net.cpp:157] Top shape: 50 4096 (204800)
I0422 11:44:49.579710 25291 net.cpp:165] Memory required for data: 343007600
I0422 11:44:49.579713 25291 layer_factory.hpp:77] Creating layer fc8_urop
I0422 11:44:49.579720 25291 net.cpp:106] Creating Layer fc8_urop
I0422 11:44:49.579723 25291 net.cpp:454] fc8_urop <- fc7
I0422 11:44:49.579730 25291 net.cpp:411] fc8_urop -> fc8_urop
I0422 11:44:49.580636 25291 net.cpp:150] Setting up fc8_urop
I0422 11:44:49.580642 25291 net.cpp:157] Top shape: 50 10 (500)
I0422 11:44:49.580646 25291 net.cpp:165] Memory required for data: 343009600
I0422 11:44:49.580652 25291 layer_factory.hpp:77] Creating layer fc8_urop_fc8_urop_0_split
I0422 11:44:49.580657 25291 net.cpp:106] Creating Layer fc8_urop_fc8_urop_0_split
I0422 11:44:49.580662 25291 net.cpp:454] fc8_urop_fc8_urop_0_split <- fc8_urop
I0422 11:44:49.580667 25291 net.cpp:411] fc8_urop_fc8_urop_0_split -> fc8_urop_fc8_urop_0_split_0
I0422 11:44:49.580674 25291 net.cpp:411] fc8_urop_fc8_urop_0_split -> fc8_urop_fc8_urop_0_split_1
I0422 11:44:49.580703 25291 net.cpp:150] Setting up fc8_urop_fc8_urop_0_split
I0422 11:44:49.580708 25291 net.cpp:157] Top shape: 50 10 (500)
I0422 11:44:49.580713 25291 net.cpp:157] Top shape: 50 10 (500)
I0422 11:44:49.580715 25291 net.cpp:165] Memory required for data: 343013600
I0422 11:44:49.580719 25291 layer_factory.hpp:77] Creating layer accuracy
I0422 11:44:49.580724 25291 net.cpp:106] Creating Layer accuracy
I0422 11:44:49.580729 25291 net.cpp:454] accuracy <- fc8_urop_fc8_urop_0_split_0
I0422 11:44:49.580732 25291 net.cpp:454] accuracy <- label_data_1_split_0
I0422 11:44:49.580737 25291 net.cpp:411] accuracy -> accuracy
…
