…
I0422 09:22:22.712752 20616 net.cpp:322] The NetState phase (0) differed from the phase (1) specified by a rule in layer data
I0422 09:22:22.712996 20616 net.cpp:49] Initializing net from parameters: 
name: "UROP-CaffeNet"
state {
  phase: TRAIN
}
layer {
  name: "data"
  type: "ImageData"
  top: "data"
  top: "label"
  include {
    phase: TRAIN
  }
  transform_param {
    mirror: true
    crop_size: 227
    mean_file: "data/ilsvrc12/imagenet_mean.binaryproto"
  }
  image_data_param {
    source: "urop/dance/original/train.txt"
    batch_size: 256
    shuffle: true
  }
}
layer {
  name: "conv1"
  type: "Convolution"
  bottom: "data"
  top: "conv1"
  param {
    lr_mult: 0
    decay_mult: 1
  }
  param {
    lr_mult: 0
    decay_mult: 0
  }
  convolution_param {
    num_output: 96
    kernel_size: 11
    stride: 4
    weight_filler {
      type: "gaussian"
      std: 0.01
    }
    bias_filler {
      type: "constant"
      value: 0
    }
  }
}
layer {
  name: "relu1"
  type: "ReLU"
  bottom: "conv1"
  top: "conv1"
}
layer {
  name: "pool1"
  type: "Pooling"
  bottom: "conv1"
  top: "pool1"
  pooling_param {
    pool: MAX
    kernel_size: 3
    stride: 2
  }
}
layer {
  name: "norm1"
  type: "LRN"
  bottom: "pool1"
  top: "norm1"
  lrn_param {
    local_size: 5
    alpha: 0.0001
    beta: 0.75
  }
}
layer {
  name: "conv2"
  type: "Convolution"
  bottom: "norm1"
  top: "conv2"
  param {
    lr_mult: 0
    decay_mult: 1
  }
  param {
    lr_mult: 0
    decay_mult: 0
  }
  convolution_param {
    num_output: 256
    pad: 2
    kernel_size: 5
    group: 2
    weight_filler {
      type: "gaussian"
      std: 0.01
    }
    bias_filler {
      type: "constant"
      value: 1
    }
  }
}
layer {
  name: "relu2"
  type: "ReLU"
  bottom: "conv2"
  top: "conv2"
}
layer {
  name: "pool2"
  type: "Pooling"
  bottom: "conv2"
  top: "pool2"
  pooling_param {
    pool: MAX
    kernel_size: 3
    stride: 2
  }
}
layer {
  name: "norm2"
  type: "LRN"
  bottom: "pool2"
  top: "norm2"
  lrn_param {
    local_size: 5
    alpha: 0.0001
    beta: 0.75
  }
}
layer {
  name: "conv3"
  type: "Convolution"
  bottom: "norm2"
  top: "conv3"
  param {
    lr_mult: 0
    decay_mult: 1
  }
  param {
    lr_mult: 0
    decay_mult: 0
  }
  convolution_param {
    num_output: 384
    pad: 1
    kernel_size: 3
    weight_filler {
      type: "gaussian"
      std: 0.01
    }
    bias_filler {
      type: "constant"
      value: 0
    }
  }
}
layer {
  name: "relu3"
  type: "ReLU"
  bottom: "conv3"
  top: "conv3"
}
layer {
  name: "conv4"
  type: "Convolution"
  bottom: "conv3"
  top: "conv4"
  param {
    lr_mult: 0
    decay_mult: 1
  }
  param {
    lr_mult: 0
    decay_mult: 0
  }
  convolution_param {
    num_output: 384
    pad: 1
    kernel_size: 3
    group: 2
    weight_filler {
      type: "gaussian"
      std: 0.01
    }
    bias_filler {
      type: "constant"
      value: 1
    }
  }
}
layer {
  name: "relu4"
  type: "ReLU"
  bottom: "conv4"
  top: "conv4"
}
layer {
  name: "conv5"
  type: "Convolution"
  bottom: "conv4"
  top: "conv5"
  param {
    lr_mult: 0
    decay_mult: 1
  }
  param {
    lr_mult: 0
    decay_mult: 0
  }
  convolution_param {
    num_output: 256
    pad: 1
    kernel_size: 3
    group: 2
    weight_filler {
      type: "gaussian"
      std: 0.01
    }
    bias_filler {
      type: "constant"
      value: 1
    }
  }
}
layer {
  name: "relu5"
  type: "ReLU"
  bottom: "conv5"
  top: "conv5"
}
layer {
  name: "pool5"
  type: "Pooling"
  bottom: "conv5"
  top: "pool5"
  pooling_param {
    pool: MAX
    kernel_size: 3
    stride: 2
  }
}
layer {
  name: "fc6"
  type: "InnerProduct"
  bottom: "pool5"
  top: "fc6"
  param {
    lr_mult: 1
    decay_mult: 1
  }
  param {
    lr_mult: 2
    decay_mult: 0
  }
  inner_product_param {
    num_output: 4096
    weight_filler {
      type: "gaussian"
      std: 0.005
    }
    bias_filler {
      type: "constant"
      value: 1
    }
  }
}
layer {
  name: "relu6"
  type: "ReLU"
  bottom: "fc6"
  top: "fc6"
}
layer {
  name: "drop6"
  type: "Dropout"
  bottom: "fc6"
  top: "fc6"
  dropout_param {
    dropout_ratio: 0.5
  }
}
layer {
  name: "fc7"
  type: "InnerProduct"
  bottom: "fc6"
  top: "fc7"
  param {
    lr_mult: 1
    decay_mult: 1
  }
  param {
    lr_mult: 2
    decay_mult: 0
  }
  inner_product_param {
    num_output: 4096
    weight_filler {
      type: "gaussian"
      std: 0.005
    }
    bias_filler {
      type: "constant"
      value: 1
    }
  }
}
layer {
  name: "relu7"
  type: "ReLU"
  bottom: "fc7"
  top: "fc7"
}
layer {
  name: "drop7"
  type: "Dropout"
  bottom: "fc7"
  top: "fc7"
  dropout_param {
    dropout_ratio: 0.5
  }
}
layer {
  name: "fc8_urop"
  type: "InnerProduct"
  bottom: "fc7"
  top: "fc8_urop"
  param {
    lr_mult: 10
    decay_mult: 1
  }
  param {
    lr_mult: 20
    decay_mult: 0
  }
  inner_product_param {
    num_output: 10
    weight_filler {
      type: "gaussian"
      std: 0.01
    }
    bias_filler {
      type: "constant"
      value: 0
    }
  }
}
layer {
  name: "acc"
  type: "Accuracy"
  bottom: "fc8_urop"
  bottom: "label"
  top: "acc"
}
layer {
  name: "loss"
  type: "SoftmaxWithLoss"
  bottom: "fc8_urop"
  bottom: "label"
  top: "loss"
}
I0422 09:22:22.713158 20616 layer_factory.hpp:77] Creating layer data
I0422 09:22:22.713202 20616 net.cpp:106] Creating Layer data
I0422 09:22:22.713209 20616 net.cpp:411] data -> data
I0422 09:22:22.713227 20616 net.cpp:411] data -> label
I0422 09:22:22.713253 20616 data_transformer.cpp:25] Loading mean file from: data/ilsvrc12/imagenet_mean.binaryproto
I0422 09:22:22.722219 20616 image_data_layer.cpp:38] Opening file urop/dance/original/train.txt
I0422 09:22:22.805670 20616 image_data_layer.cpp:48] Shuffling data
I0422 09:22:22.831616 20616 image_data_layer.cpp:53] A total of 174163 images.
I0422 09:22:22.832495 20616 image_data_layer.cpp:80] output data size: 256,3,227,227
I0422 09:22:23.007977 20616 net.cpp:150] Setting up data
I0422 09:22:23.007998 20616 net.cpp:157] Top shape: 256 3 227 227 (39574272)
I0422 09:22:23.008003 20616 net.cpp:157] Top shape: 256 (256)
I0422 09:22:23.008007 20616 net.cpp:165] Memory required for data: 158298112
I0422 09:22:23.008013 20616 layer_factory.hpp:77] Creating layer label_data_1_split
I0422 09:22:23.008029 20616 net.cpp:106] Creating Layer label_data_1_split
I0422 09:22:23.008036 20616 net.cpp:454] label_data_1_split <- label
I0422 09:22:23.008049 20616 net.cpp:411] label_data_1_split -> label_data_1_split_0
I0422 09:22:23.008057 20616 net.cpp:411] label_data_1_split -> label_data_1_split_1
I0422 09:22:23.008091 20616 net.cpp:150] Setting up label_data_1_split
I0422 09:22:23.008097 20616 net.cpp:157] Top shape: 256 (256)
I0422 09:22:23.008102 20616 net.cpp:157] Top shape: 256 (256)
I0422 09:22:23.008106 20616 net.cpp:165] Memory required for data: 158300160
I0422 09:22:23.008110 20616 layer_factory.hpp:77] Creating layer conv1
I0422 09:22:23.008123 20616 net.cpp:106] Creating Layer conv1
I0422 09:22:23.008126 20616 net.cpp:454] conv1 <- data
I0422 09:22:23.008132 20616 net.cpp:411] conv1 -> conv1
I0422 09:22:23.025882 20616 net.cpp:150] Setting up conv1
I0422 09:22:23.025913 20616 net.cpp:157] Top shape: 256 96 55 55 (74342400)
I0422 09:22:23.025916 20616 net.cpp:165] Memory required for data: 455669760
I0422 09:22:23.025933 20616 layer_factory.hpp:77] Creating layer relu1
I0422 09:22:23.025941 20616 net.cpp:106] Creating Layer relu1
I0422 09:22:23.025948 20616 net.cpp:454] relu1 <- conv1
I0422 09:22:23.025952 20616 net.cpp:397] relu1 -> conv1 (in-place)
I0422 09:22:23.025964 20616 net.cpp:150] Setting up relu1
I0422 09:22:23.025970 20616 net.cpp:157] Top shape: 256 96 55 55 (74342400)
I0422 09:22:23.025988 20616 net.cpp:165] Memory required for data: 753039360
I0422 09:22:23.025992 20616 layer_factory.hpp:77] Creating layer pool1
I0422 09:22:23.025998 20616 net.cpp:106] Creating Layer pool1
I0422 09:22:23.026001 20616 net.cpp:454] pool1 <- conv1
I0422 09:22:23.026006 20616 net.cpp:411] pool1 -> pool1
I0422 09:22:23.026047 20616 net.cpp:150] Setting up pool1
I0422 09:22:23.026053 20616 net.cpp:157] Top shape: 256 96 27 27 (17915904)
I0422 09:22:23.026057 20616 net.cpp:165] Memory required for data: 824702976
I0422 09:22:23.026060 20616 layer_factory.hpp:77] Creating layer norm1
I0422 09:22:23.026065 20616 net.cpp:106] Creating Layer norm1
I0422 09:22:23.026069 20616 net.cpp:454] norm1 <- pool1
I0422 09:22:23.026073 20616 net.cpp:411] norm1 -> norm1
I0422 09:22:23.026099 20616 net.cpp:150] Setting up norm1
I0422 09:22:23.026105 20616 net.cpp:157] Top shape: 256 96 27 27 (17915904)
I0422 09:22:23.026108 20616 net.cpp:165] Memory required for data: 896366592
I0422 09:22:23.026110 20616 layer_factory.hpp:77] Creating layer conv2
I0422 09:22:23.026119 20616 net.cpp:106] Creating Layer conv2
I0422 09:22:23.026123 20616 net.cpp:454] conv2 <- norm1
I0422 09:22:23.026127 20616 net.cpp:411] conv2 -> conv2
I0422 09:22:23.035230 20616 net.cpp:150] Setting up conv2
I0422 09:22:23.035248 20616 net.cpp:157] Top shape: 256 256 27 27 (47775744)
I0422 09:22:23.035253 20616 net.cpp:165] Memory required for data: 1087469568
I0422 09:22:23.035277 20616 layer_factory.hpp:77] Creating layer relu2
I0422 09:22:23.035286 20616 net.cpp:106] Creating Layer relu2
I0422 09:22:23.035290 20616 net.cpp:454] relu2 <- conv2
I0422 09:22:23.035296 20616 net.cpp:397] relu2 -> conv2 (in-place)
I0422 09:22:23.035310 20616 net.cpp:150] Setting up relu2
I0422 09:22:23.035317 20616 net.cpp:157] Top shape: 256 256 27 27 (47775744)
I0422 09:22:23.035323 20616 net.cpp:165] Memory required for data: 1278572544
I0422 09:22:23.035327 20616 layer_factory.hpp:77] Creating layer pool2
I0422 09:22:23.035334 20616 net.cpp:106] Creating Layer pool2
I0422 09:22:23.035339 20616 net.cpp:454] pool2 <- conv2
I0422 09:22:23.035346 20616 net.cpp:411] pool2 -> pool2
I0422 09:22:23.035382 20616 net.cpp:150] Setting up pool2
I0422 09:22:23.035390 20616 net.cpp:157] Top shape: 256 256 13 13 (11075584)
I0422 09:22:23.035395 20616 net.cpp:165] Memory required for data: 1322874880
I0422 09:22:23.035398 20616 layer_factory.hpp:77] Creating layer norm2
I0422 09:22:23.035405 20616 net.cpp:106] Creating Layer norm2
I0422 09:22:23.035409 20616 net.cpp:454] norm2 <- pool2
I0422 09:22:23.035415 20616 net.cpp:411] norm2 -> norm2
I0422 09:22:23.035442 20616 net.cpp:150] Setting up norm2
I0422 09:22:23.035449 20616 net.cpp:157] Top shape: 256 256 13 13 (11075584)
I0422 09:22:23.035454 20616 net.cpp:165] Memory required for data: 1367177216
I0422 09:22:23.035456 20616 layer_factory.hpp:77] Creating layer conv3
I0422 09:22:23.035465 20616 net.cpp:106] Creating Layer conv3
I0422 09:22:23.035470 20616 net.cpp:454] conv3 <- norm2
I0422 09:22:23.035477 20616 net.cpp:411] conv3 -> conv3
I0422 09:22:23.059350 20616 net.cpp:150] Setting up conv3
I0422 09:22:23.059366 20616 net.cpp:157] Top shape: 256 384 13 13 (16613376)
I0422 09:22:23.059370 20616 net.cpp:165] Memory required for data: 1433630720
I0422 09:22:23.059396 20616 layer_factory.hpp:77] Creating layer relu3
I0422 09:22:23.059402 20616 net.cpp:106] Creating Layer relu3
I0422 09:22:23.059406 20616 net.cpp:454] relu3 <- conv3
I0422 09:22:23.059412 20616 net.cpp:397] relu3 -> conv3 (in-place)
I0422 09:22:23.059417 20616 net.cpp:150] Setting up relu3
I0422 09:22:23.059425 20616 net.cpp:157] Top shape: 256 384 13 13 (16613376)
I0422 09:22:23.059428 20616 net.cpp:165] Memory required for data: 1500084224
I0422 09:22:23.059432 20616 layer_factory.hpp:77] Creating layer conv4
I0422 09:22:23.059443 20616 net.cpp:106] Creating Layer conv4
I0422 09:22:23.059448 20616 net.cpp:454] conv4 <- conv3
I0422 09:22:23.059453 20616 net.cpp:411] conv4 -> conv4
I0422 09:22:23.077476 20616 net.cpp:150] Setting up conv4
I0422 09:22:23.077491 20616 net.cpp:157] Top shape: 256 384 13 13 (16613376)
I0422 09:22:23.077523 20616 net.cpp:165] Memory required for data: 1566537728
I0422 09:22:23.077530 20616 layer_factory.hpp:77] Creating layer relu4
I0422 09:22:23.077538 20616 net.cpp:106] Creating Layer relu4
I0422 09:22:23.077544 20616 net.cpp:454] relu4 <- conv4
I0422 09:22:23.077549 20616 net.cpp:397] relu4 -> conv4 (in-place)
I0422 09:22:23.077558 20616 net.cpp:150] Setting up relu4
I0422 09:22:23.077563 20616 net.cpp:157] Top shape: 256 384 13 13 (16613376)
I0422 09:22:23.077565 20616 net.cpp:165] Memory required for data: 1632991232
I0422 09:22:23.077569 20616 layer_factory.hpp:77] Creating layer conv5
I0422 09:22:23.077577 20616 net.cpp:106] Creating Layer conv5
I0422 09:22:23.077580 20616 net.cpp:454] conv5 <- conv4
I0422 09:22:23.077587 20616 net.cpp:411] conv5 -> conv5
I0422 09:22:23.089790 20616 net.cpp:150] Setting up conv5
I0422 09:22:23.089807 20616 net.cpp:157] Top shape: 256 256 13 13 (11075584)
I0422 09:22:23.089809 20616 net.cpp:165] Memory required for data: 1677293568
I0422 09:22:23.089820 20616 layer_factory.hpp:77] Creating layer relu5
I0422 09:22:23.089828 20616 net.cpp:106] Creating Layer relu5
I0422 09:22:23.089831 20616 net.cpp:454] relu5 <- conv5
I0422 09:22:23.089838 20616 net.cpp:397] relu5 -> conv5 (in-place)
I0422 09:22:23.089844 20616 net.cpp:150] Setting up relu5
I0422 09:22:23.089849 20616 net.cpp:157] Top shape: 256 256 13 13 (11075584)
I0422 09:22:23.089853 20616 net.cpp:165] Memory required for data: 1721595904
I0422 09:22:23.089854 20616 layer_factory.hpp:77] Creating layer pool5
I0422 09:22:23.089862 20616 net.cpp:106] Creating Layer pool5
I0422 09:22:23.089864 20616 net.cpp:454] pool5 <- conv5
I0422 09:22:23.089869 20616 net.cpp:411] pool5 -> pool5
I0422 09:22:23.089901 20616 net.cpp:150] Setting up pool5
I0422 09:22:23.089907 20616 net.cpp:157] Top shape: 256 256 6 6 (2359296)
I0422 09:22:23.089910 20616 net.cpp:165] Memory required for data: 1731033088
I0422 09:22:23.089913 20616 layer_factory.hpp:77] Creating layer fc6
I0422 09:22:23.089920 20616 net.cpp:106] Creating Layer fc6
I0422 09:22:23.089923 20616 net.cpp:454] fc6 <- pool5
I0422 09:22:23.089929 20616 net.cpp:411] fc6 -> fc6
I0422 09:22:23.956401 20616 net.cpp:150] Setting up fc6
I0422 09:22:23.956419 20616 net.cpp:157] Top shape: 256 4096 (1048576)
I0422 09:22:23.956423 20616 net.cpp:165] Memory required for data: 1735227392
I0422 09:22:23.956428 20616 layer_factory.hpp:77] Creating layer relu6
I0422 09:22:23.956434 20616 net.cpp:106] Creating Layer relu6
I0422 09:22:23.956436 20616 net.cpp:454] relu6 <- fc6
I0422 09:22:23.956441 20616 net.cpp:397] relu6 -> fc6 (in-place)
I0422 09:22:23.956447 20616 net.cpp:150] Setting up relu6
I0422 09:22:23.956450 20616 net.cpp:157] Top shape: 256 4096 (1048576)
I0422 09:22:23.956452 20616 net.cpp:165] Memory required for data: 1739421696
I0422 09:22:23.956454 20616 layer_factory.hpp:77] Creating layer drop6
I0422 09:22:23.956459 20616 net.cpp:106] Creating Layer drop6
I0422 09:22:23.956460 20616 net.cpp:454] drop6 <- fc6
I0422 09:22:23.956464 20616 net.cpp:397] drop6 -> fc6 (in-place)
I0422 09:22:23.956480 20616 net.cpp:150] Setting up drop6
I0422 09:22:23.956485 20616 net.cpp:157] Top shape: 256 4096 (1048576)
I0422 09:22:23.956486 20616 net.cpp:165] Memory required for data: 1743616000
I0422 09:22:23.956488 20616 layer_factory.hpp:77] Creating layer fc7
I0422 09:22:23.956492 20616 net.cpp:106] Creating Layer fc7
I0422 09:22:23.956496 20616 net.cpp:454] fc7 <- fc6
I0422 09:22:23.956499 20616 net.cpp:411] fc7 -> fc7
I0422 09:22:24.304914 20616 net.cpp:150] Setting up fc7
I0422 09:22:24.304929 20616 net.cpp:157] Top shape: 256 4096 (1048576)
I0422 09:22:24.304932 20616 net.cpp:165] Memory required for data: 1747810304
I0422 09:22:24.304937 20616 layer_factory.hpp:77] Creating layer relu7
I0422 09:22:24.304944 20616 net.cpp:106] Creating Layer relu7
I0422 09:22:24.304946 20616 net.cpp:454] relu7 <- fc7
I0422 09:22:24.304951 20616 net.cpp:397] relu7 -> fc7 (in-place)
I0422 09:22:24.304956 20616 net.cpp:150] Setting up relu7
I0422 09:22:24.304960 20616 net.cpp:157] Top shape: 256 4096 (1048576)
I0422 09:22:24.304976 20616 net.cpp:165] Memory required for data: 1752004608
I0422 09:22:24.304980 20616 layer_factory.hpp:77] Creating layer drop7
I0422 09:22:24.304986 20616 net.cpp:106] Creating Layer drop7
I0422 09:22:24.305002 20616 net.cpp:454] drop7 <- fc7
I0422 09:22:24.305009 20616 net.cpp:397] drop7 -> fc7 (in-place)
I0422 09:22:24.305030 20616 net.cpp:150] Setting up drop7
I0422 09:22:24.305037 20616 net.cpp:157] Top shape: 256 4096 (1048576)
I0422 09:22:24.305049 20616 net.cpp:165] Memory required for data: 1756198912
I0422 09:22:24.305053 20616 layer_factory.hpp:77] Creating layer fc8_urop
I0422 09:22:24.305060 20616 net.cpp:106] Creating Layer fc8_urop
I0422 09:22:24.305064 20616 net.cpp:454] fc8_urop <- fc7
I0422 09:22:24.305078 20616 net.cpp:411] fc8_urop -> fc8_urop
I0422 09:22:24.305984 20616 net.cpp:150] Setting up fc8_urop
I0422 09:22:24.305992 20616 net.cpp:157] Top shape: 256 10 (2560)
I0422 09:22:24.305995 20616 net.cpp:165] Memory required for data: 1756209152
I0422 09:22:24.306001 20616 layer_factory.hpp:77] Creating layer fc8_urop_fc8_urop_0_split
I0422 09:22:24.306015 20616 net.cpp:106] Creating Layer fc8_urop_fc8_urop_0_split
I0422 09:22:24.306020 20616 net.cpp:454] fc8_urop_fc8_urop_0_split <- fc8_urop
I0422 09:22:24.306026 20616 net.cpp:411] fc8_urop_fc8_urop_0_split -> fc8_urop_fc8_urop_0_split_0
I0422 09:22:24.306035 20616 net.cpp:411] fc8_urop_fc8_urop_0_split -> fc8_urop_fc8_urop_0_split_1
I0422 09:22:24.306059 20616 net.cpp:150] Setting up fc8_urop_fc8_urop_0_split
I0422 09:22:24.306064 20616 net.cpp:157] Top shape: 256 10 (2560)
I0422 09:22:24.306077 20616 net.cpp:157] Top shape: 256 10 (2560)
I0422 09:22:24.306079 20616 net.cpp:165] Memory required for data: 1756229632
I0422 09:22:24.306083 20616 layer_factory.hpp:77] Creating layer acc
I0422 09:22:24.306092 20616 net.cpp:106] Creating Layer acc
I0422 09:22:24.306095 20616 net.cpp:454] acc <- fc8_urop_fc8_urop_0_split_0
I0422 09:22:24.306099 20616 net.cpp:454] acc <- label_data_1_split_0
I0422 09:22:24.306107 20616 net.cpp:411] acc -> acc
…
I0422 09:22:24.306932 20616 net.cpp:322] The NetState phase (1) differed from the phase (0) specified by a rule in layer data
I0422 09:22:24.307056 20616 net.cpp:49] Initializing net from parameters: 
name: "UROP-CaffeNet"
state {
  phase: TEST
}
layer {
  name: "data"
  type: "ImageData"
  top: "data"
  top: "label"
  include {
    phase: TEST
  }
  transform_param {
    mirror: false
    crop_size: 227
    mean_file: "data/ilsvrc12/imagenet_mean.binaryproto"
  }
  image_data_param {
    source: "urop/dance/original/val.txt"
    batch_size: 50
    shuffle: true
  }
}
layer {
  name: "conv1"
  type: "Convolution"
  bottom: "data"
  top: "conv1"
  param {
    lr_mult: 0
    decay_mult: 1
  }
  param {
    lr_mult: 0
    decay_mult: 0
  }
  convolution_param {
    num_output: 96
    kernel_size: 11
    stride: 4
    weight_filler {
      type: "gaussian"
      std: 0.01
    }
    bias_filler {
      type: "constant"
      value: 0
    }
  }
}
layer {
  name: "relu1"
  type: "ReLU"
  bottom: "conv1"
  top: "conv1"
}
layer {
  name: "pool1"
  type: "Pooling"
  bottom: "conv1"
  top: "pool1"
  pooling_param {
    pool: MAX
    kernel_size: 3
    stride: 2
  }
}
layer {
  name: "norm1"
  type: "LRN"
  bottom: "pool1"
  top: "norm1"
  lrn_param {
    local_size: 5
    alpha: 0.0001
    beta: 0.75
  }
}
layer {
  name: "conv2"
  type: "Convolution"
  bottom: "norm1"
  top: "conv2"
  param {
    lr_mult: 0
    decay_mult: 1
  }
  param {
    lr_mult: 0
    decay_mult: 0
  }
  convolution_param {
    num_output: 256
    pad: 2
    kernel_size: 5
    group: 2
    weight_filler {
      type: "gaussian"
      std: 0.01
    }
    bias_filler {
      type: "constant"
      value: 1
    }
  }
}
layer {
  name: "relu2"
  type: "ReLU"
  bottom: "conv2"
  top: "conv2"
}
layer {
  name: "pool2"
  type: "Pooling"
  bottom: "conv2"
  top: "pool2"
  pooling_param {
    pool: MAX
    kernel_size: 3
    stride: 2
  }
}
layer {
  name: "norm2"
  type: "LRN"
  bottom: "pool2"
  top: "norm2"
  lrn_param {
    local_size: 5
    alpha: 0.0001
    beta: 0.75
  }
}
layer {
  name: "conv3"
  type: "Convolution"
  bottom: "norm2"
  top: "conv3"
  param {
    lr_mult: 0
    decay_mult: 1
  }
  param {
    lr_mult: 0
    decay_mult: 0
  }
  convolution_param {
    num_output: 384
    pad: 1
    kernel_size: 3
    weight_filler {
      type: "gaussian"
      std: 0.01
    }
    bias_filler {
      type: "constant"
      value: 0
    }
  }
}
layer {
  name: "relu3"
  type: "ReLU"
  bottom: "conv3"
  top: "conv3"
}
layer {
  name: "conv4"
  type: "Convolution"
  bottom: "conv3"
  top: "conv4"
  param {
    lr_mult: 0
    decay_mult: 1
  }
  param {
    lr_mult: 0
    decay_mult: 0
  }
  convolution_param {
    num_output: 384
    pad: 1
    kernel_size: 3
    group: 2
    weight_filler {
      type: "gaussian"
      std: 0.01
    }
    bias_filler {
      type: "constant"
      value: 1
    }
  }
}
layer {
  name: "relu4"
  type: "ReLU"
  bottom: "conv4"
  top: "conv4"
}
layer {
  name: "conv5"
  type: "Convolution"
  bottom: "conv4"
  top: "conv5"
  param {
    lr_mult: 0
    decay_mult: 1
  }
  param {
    lr_mult: 0
    decay_mult: 0
  }
  convolution_param {
    num_output: 256
    pad: 1
    kernel_size: 3
    group: 2
    weight_filler {
      type: "gaussian"
      std: 0.01
    }
    bias_filler {
      type: "constant"
      value: 1
    }
  }
}
layer {
  name: "relu5"
  type: "ReLU"
  bottom: "conv5"
  top: "conv5"
}
layer {
  name: "pool5"
  type: "Pooling"
  bottom: "conv5"
  top: "pool5"
  pooling_param {
    pool: MAX
    kernel_size: 3
    stride: 2
  }
}
layer {
  name: "fc6"
  type: "InnerProduct"
  bottom: "pool5"
  top: "fc6"
  param {
    lr_mult: 1
    decay_mult: 1
  }
  param {
    lr_mult: 2
    decay_mult: 0
  }
  inner_product_param {
    num_output: 4096
    weight_filler {
      type: "gaussian"
      std: 0.005
    }
    bias_filler {
      type: "constant"
      value: 1
    }
  }
}
layer {
  name: "relu6"
  type: "ReLU"
  bottom: "fc6"
  top: "fc6"
}
layer {
  name: "drop6"
  type: "Dropout"
  bottom: "fc6"
  top: "fc6"
  dropout_param {
    dropout_ratio: 0.5
  }
}
layer {
  name: "fc7"
  type: "InnerProduct"
  bottom: "fc6"
  top: "fc7"
  param {
    lr_mult: 1
    decay_mult: 1
  }
  param {
    lr_mult: 2
    decay_mult: 0
  }
  inner_product_param {
    num_output: 4096
    weight_filler {
      type: "gaussian"
      std: 0.005
    }
    bias_filler {
      type: "constant"
      value: 1
    }
  }
}
layer {
  name: "relu7"
  type: "ReLU"
  bottom: "fc7"
  top: "fc7"
}
layer {
  name: "drop7"
  type: "Dropout"
  bottom: "fc7"
  top: "fc7"
  dropout_param {
    dropout_ratio: 0.5
  }
}
layer {
  name: "fc8_urop"
  type: "InnerProduct"
  bottom: "fc7"
  top: "fc8_urop"
  param {
    lr_mult: 10
    decay_mult: 1
  }
  param {
    lr_mult: 20
    decay_mult: 0
  }
  inner_product_param {
    num_output: 10
    weight_filler {
      type: "gaussian"
      std: 0.01
    }
    bias_filler {
      type: "constant"
      value: 0
    }
  }
}
layer {
  name: "acc"
  type: "Accuracy"
  bottom: "fc8_urop"
  bottom: "label"
  top: "acc"
}
layer {
  name: "loss"
  type: "SoftmaxWithLoss"
  bottom: "fc8_urop"
  bottom: "label"
  top: "loss"
}
I0422 09:22:24.307164 20616 layer_factory.hpp:77] Creating layer data
I0422 09:22:24.307176 20616 net.cpp:106] Creating Layer data
I0422 09:22:24.307181 20616 net.cpp:411] data -> data
I0422 09:22:24.307190 20616 net.cpp:411] data -> label
I0422 09:22:24.307199 20616 data_transformer.cpp:25] Loading mean file from: data/ilsvrc12/imagenet_mean.binaryproto
I0422 09:22:24.308506 20616 image_data_layer.cpp:38] Opening file urop/dance/original/val.txt
I0422 09:22:24.331815 20616 image_data_layer.cpp:48] Shuffling data
I0422 09:22:24.338178 20616 image_data_layer.cpp:53] A total of 75820 images.
I0422 09:22:24.338665 20616 image_data_layer.cpp:80] output data size: 50,3,227,227
I0422 09:22:24.366763 20616 net.cpp:150] Setting up data
I0422 09:22:24.366780 20616 net.cpp:157] Top shape: 50 3 227 227 (7729350)
I0422 09:22:24.366786 20616 net.cpp:157] Top shape: 50 (50)
I0422 09:22:24.366788 20616 net.cpp:165] Memory required for data: 30917600
I0422 09:22:24.366793 20616 layer_factory.hpp:77] Creating layer label_data_1_split
I0422 09:22:24.366803 20616 net.cpp:106] Creating Layer label_data_1_split
I0422 09:22:24.366819 20616 net.cpp:454] label_data_1_split <- label
I0422 09:22:24.366827 20616 net.cpp:411] label_data_1_split -> label_data_1_split_0
I0422 09:22:24.366842 20616 net.cpp:411] label_data_1_split -> label_data_1_split_1
I0422 09:22:24.366879 20616 net.cpp:150] Setting up label_data_1_split
I0422 09:22:24.366885 20616 net.cpp:157] Top shape: 50 (50)
I0422 09:22:24.366889 20616 net.cpp:157] Top shape: 50 (50)
I0422 09:22:24.366904 20616 net.cpp:165] Memory required for data: 30918000
I0422 09:22:24.366922 20616 layer_factory.hpp:77] Creating layer conv1
I0422 09:22:24.366940 20616 net.cpp:106] Creating Layer conv1
I0422 09:22:24.366945 20616 net.cpp:454] conv1 <- data
I0422 09:22:24.366950 20616 net.cpp:411] conv1 -> conv1
I0422 09:22:24.367799 20616 net.cpp:150] Setting up conv1
I0422 09:22:24.367805 20616 net.cpp:157] Top shape: 50 96 55 55 (14520000)
I0422 09:22:24.367808 20616 net.cpp:165] Memory required for data: 88998000
I0422 09:22:24.367818 20616 layer_factory.hpp:77] Creating layer relu1
I0422 09:22:24.367825 20616 net.cpp:106] Creating Layer relu1
I0422 09:22:24.367828 20616 net.cpp:454] relu1 <- conv1
I0422 09:22:24.367835 20616 net.cpp:397] relu1 -> conv1 (in-place)
I0422 09:22:24.367841 20616 net.cpp:150] Setting up relu1
I0422 09:22:24.367847 20616 net.cpp:157] Top shape: 50 96 55 55 (14520000)
I0422 09:22:24.367851 20616 net.cpp:165] Memory required for data: 147078000
I0422 09:22:24.367854 20616 layer_factory.hpp:77] Creating layer pool1
I0422 09:22:24.367861 20616 net.cpp:106] Creating Layer pool1
I0422 09:22:24.367866 20616 net.cpp:454] pool1 <- conv1
I0422 09:22:24.367871 20616 net.cpp:411] pool1 -> pool1
I0422 09:22:24.367895 20616 net.cpp:150] Setting up pool1
I0422 09:22:24.367900 20616 net.cpp:157] Top shape: 50 96 27 27 (3499200)
I0422 09:22:24.367911 20616 net.cpp:165] Memory required for data: 161074800
I0422 09:22:24.367915 20616 layer_factory.hpp:77] Creating layer norm1
I0422 09:22:24.367921 20616 net.cpp:106] Creating Layer norm1
I0422 09:22:24.367925 20616 net.cpp:454] norm1 <- pool1
I0422 09:22:24.367930 20616 net.cpp:411] norm1 -> norm1
I0422 09:22:24.367954 20616 net.cpp:150] Setting up norm1
I0422 09:22:24.367959 20616 net.cpp:157] Top shape: 50 96 27 27 (3499200)
I0422 09:22:24.367969 20616 net.cpp:165] Memory required for data: 175071600
I0422 09:22:24.367972 20616 layer_factory.hpp:77] Creating layer conv2
I0422 09:22:24.367980 20616 net.cpp:106] Creating Layer conv2
I0422 09:22:24.367983 20616 net.cpp:454] conv2 <- norm1
I0422 09:22:24.367990 20616 net.cpp:411] conv2 -> conv2
I0422 09:22:24.377842 20616 net.cpp:150] Setting up conv2
I0422 09:22:24.377887 20616 net.cpp:157] Top shape: 50 256 27 27 (9331200)
I0422 09:22:24.377892 20616 net.cpp:165] Memory required for data: 212396400
I0422 09:22:24.377904 20616 layer_factory.hpp:77] Creating layer relu2
I0422 09:22:24.377913 20616 net.cpp:106] Creating Layer relu2
I0422 09:22:24.377918 20616 net.cpp:454] relu2 <- conv2
I0422 09:22:24.377924 20616 net.cpp:397] relu2 -> conv2 (in-place)
I0422 09:22:24.377933 20616 net.cpp:150] Setting up relu2
I0422 09:22:24.377938 20616 net.cpp:157] Top shape: 50 256 27 27 (9331200)
I0422 09:22:24.377943 20616 net.cpp:165] Memory required for data: 249721200
I0422 09:22:24.377954 20616 layer_factory.hpp:77] Creating layer pool2
I0422 09:22:24.377960 20616 net.cpp:106] Creating Layer pool2
I0422 09:22:24.377964 20616 net.cpp:454] pool2 <- conv2
I0422 09:22:24.377970 20616 net.cpp:411] pool2 -> pool2
I0422 09:22:24.378000 20616 net.cpp:150] Setting up pool2
I0422 09:22:24.378006 20616 net.cpp:157] Top shape: 50 256 13 13 (2163200)
I0422 09:22:24.378010 20616 net.cpp:165] Memory required for data: 258374000
I0422 09:22:24.378021 20616 layer_factory.hpp:77] Creating layer norm2
I0422 09:22:24.378027 20616 net.cpp:106] Creating Layer norm2
I0422 09:22:24.378031 20616 net.cpp:454] norm2 <- pool2
I0422 09:22:24.378042 20616 net.cpp:411] norm2 -> norm2
I0422 09:22:24.378065 20616 net.cpp:150] Setting up norm2
I0422 09:22:24.378072 20616 net.cpp:157] Top shape: 50 256 13 13 (2163200)
I0422 09:22:24.378075 20616 net.cpp:165] Memory required for data: 267026800
I0422 09:22:24.378084 20616 layer_factory.hpp:77] Creating layer conv3
I0422 09:22:24.378094 20616 net.cpp:106] Creating Layer conv3
I0422 09:22:24.378098 20616 net.cpp:454] conv3 <- norm2
I0422 09:22:24.378103 20616 net.cpp:411] conv3 -> conv3
I0422 09:22:24.396855 20616 net.cpp:150] Setting up conv3
I0422 09:22:24.396870 20616 net.cpp:157] Top shape: 50 384 13 13 (3244800)
I0422 09:22:24.396901 20616 net.cpp:165] Memory required for data: 280006000
I0422 09:22:24.396919 20616 layer_factory.hpp:77] Creating layer relu3
I0422 09:22:24.396929 20616 net.cpp:106] Creating Layer relu3
I0422 09:22:24.396940 20616 net.cpp:454] relu3 <- conv3
I0422 09:22:24.396946 20616 net.cpp:397] relu3 -> conv3 (in-place)
I0422 09:22:24.396961 20616 net.cpp:150] Setting up relu3
I0422 09:22:24.396966 20616 net.cpp:157] Top shape: 50 384 13 13 (3244800)
I0422 09:22:24.396970 20616 net.cpp:165] Memory required for data: 292985200
I0422 09:22:24.396981 20616 layer_factory.hpp:77] Creating layer conv4
I0422 09:22:24.396989 20616 net.cpp:106] Creating Layer conv4
I0422 09:22:24.396993 20616 net.cpp:454] conv4 <- conv3
I0422 09:22:24.396999 20616 net.cpp:411] conv4 -> conv4
I0422 09:22:24.411018 20616 net.cpp:150] Setting up conv4
I0422 09:22:24.411031 20616 net.cpp:157] Top shape: 50 384 13 13 (3244800)
I0422 09:22:24.411034 20616 net.cpp:165] Memory required for data: 305964400
I0422 09:22:24.411041 20616 layer_factory.hpp:77] Creating layer relu4
I0422 09:22:24.411049 20616 net.cpp:106] Creating Layer relu4
I0422 09:22:24.411052 20616 net.cpp:454] relu4 <- conv4
I0422 09:22:24.411056 20616 net.cpp:397] relu4 -> conv4 (in-place)
I0422 09:22:24.411062 20616 net.cpp:150] Setting up relu4
I0422 09:22:24.411064 20616 net.cpp:157] Top shape: 50 384 13 13 (3244800)
I0422 09:22:24.411065 20616 net.cpp:165] Memory required for data: 318943600
I0422 09:22:24.411067 20616 layer_factory.hpp:77] Creating layer conv5
I0422 09:22:24.411074 20616 net.cpp:106] Creating Layer conv5
I0422 09:22:24.411077 20616 net.cpp:454] conv5 <- conv4
I0422 09:22:24.411080 20616 net.cpp:411] conv5 -> conv5
I0422 09:22:24.423138 20616 net.cpp:150] Setting up conv5
I0422 09:22:24.423151 20616 net.cpp:157] Top shape: 50 256 13 13 (2163200)
I0422 09:22:24.423154 20616 net.cpp:165] Memory required for data: 327596400
I0422 09:22:24.423162 20616 layer_factory.hpp:77] Creating layer relu5
I0422 09:22:24.423168 20616 net.cpp:106] Creating Layer relu5
I0422 09:22:24.423172 20616 net.cpp:454] relu5 <- conv5
I0422 09:22:24.423178 20616 net.cpp:397] relu5 -> conv5 (in-place)
I0422 09:22:24.423187 20616 net.cpp:150] Setting up relu5
I0422 09:22:24.423200 20616 net.cpp:157] Top shape: 50 256 13 13 (2163200)
I0422 09:22:24.423204 20616 net.cpp:165] Memory required for data: 336249200
I0422 09:22:24.423207 20616 layer_factory.hpp:77] Creating layer pool5
I0422 09:22:24.423215 20616 net.cpp:106] Creating Layer pool5
I0422 09:22:24.423219 20616 net.cpp:454] pool5 <- conv5
I0422 09:22:24.423228 20616 net.cpp:411] pool5 -> pool5
I0422 09:22:24.423259 20616 net.cpp:150] Setting up pool5
I0422 09:22:24.423265 20616 net.cpp:157] Top shape: 50 256 6 6 (460800)
I0422 09:22:24.423269 20616 net.cpp:165] Memory required for data: 338092400
I0422 09:22:24.423271 20616 layer_factory.hpp:77] Creating layer fc6
I0422 09:22:24.423286 20616 net.cpp:106] Creating Layer fc6
I0422 09:22:24.423290 20616 net.cpp:454] fc6 <- pool5
I0422 09:22:24.423296 20616 net.cpp:411] fc6 -> fc6
I0422 09:22:25.215970 20616 net.cpp:150] Setting up fc6
I0422 09:22:25.215986 20616 net.cpp:157] Top shape: 50 4096 (204800)
I0422 09:22:25.215988 20616 net.cpp:165] Memory required for data: 338911600
I0422 09:22:25.215994 20616 layer_factory.hpp:77] Creating layer relu6
I0422 09:22:25.216001 20616 net.cpp:106] Creating Layer relu6
I0422 09:22:25.216003 20616 net.cpp:454] relu6 <- fc6
I0422 09:22:25.216007 20616 net.cpp:397] relu6 -> fc6 (in-place)
I0422 09:22:25.216013 20616 net.cpp:150] Setting up relu6
I0422 09:22:25.216017 20616 net.cpp:157] Top shape: 50 4096 (204800)
I0422 09:22:25.216017 20616 net.cpp:165] Memory required for data: 339730800
I0422 09:22:25.216019 20616 layer_factory.hpp:77] Creating layer drop6
I0422 09:22:25.216024 20616 net.cpp:106] Creating Layer drop6
I0422 09:22:25.216027 20616 net.cpp:454] drop6 <- fc6
I0422 09:22:25.216029 20616 net.cpp:397] drop6 -> fc6 (in-place)
I0422 09:22:25.216053 20616 net.cpp:150] Setting up drop6
I0422 09:22:25.216060 20616 net.cpp:157] Top shape: 50 4096 (204800)
I0422 09:22:25.216096 20616 net.cpp:165] Memory required for data: 340550000
I0422 09:22:25.216100 20616 layer_factory.hpp:77] Creating layer fc7
I0422 09:22:25.216109 20616 net.cpp:106] Creating Layer fc7
I0422 09:22:25.216114 20616 net.cpp:454] fc7 <- fc6
I0422 09:22:25.216120 20616 net.cpp:411] fc7 -> fc7
I0422 09:22:25.568595 20616 net.cpp:150] Setting up fc7
I0422 09:22:25.568614 20616 net.cpp:157] Top shape: 50 4096 (204800)
I0422 09:22:25.568616 20616 net.cpp:165] Memory required for data: 341369200
I0422 09:22:25.568624 20616 layer_factory.hpp:77] Creating layer relu7
I0422 09:22:25.568632 20616 net.cpp:106] Creating Layer relu7
I0422 09:22:25.568647 20616 net.cpp:454] relu7 <- fc7
I0422 09:22:25.568655 20616 net.cpp:397] relu7 -> fc7 (in-place)
I0422 09:22:25.568670 20616 net.cpp:150] Setting up relu7
I0422 09:22:25.568675 20616 net.cpp:157] Top shape: 50 4096 (204800)
I0422 09:22:25.568678 20616 net.cpp:165] Memory required for data: 342188400
I0422 09:22:25.568688 20616 layer_factory.hpp:77] Creating layer drop7
I0422 09:22:25.568697 20616 net.cpp:106] Creating Layer drop7
I0422 09:22:25.568702 20616 net.cpp:454] drop7 <- fc7
I0422 09:22:25.568709 20616 net.cpp:397] drop7 -> fc7 (in-place)
I0422 09:22:25.568737 20616 net.cpp:150] Setting up drop7
I0422 09:22:25.568742 20616 net.cpp:157] Top shape: 50 4096 (204800)
I0422 09:22:25.568744 20616 net.cpp:165] Memory required for data: 343007600
I0422 09:22:25.568748 20616 layer_factory.hpp:77] Creating layer fc8_urop
I0422 09:22:25.568760 20616 net.cpp:106] Creating Layer fc8_urop
I0422 09:22:25.568764 20616 net.cpp:454] fc8_urop <- fc7
I0422 09:22:25.568771 20616 net.cpp:411] fc8_urop -> fc8_urop
I0422 09:22:25.569674 20616 net.cpp:150] Setting up fc8_urop
I0422 09:22:25.569681 20616 net.cpp:157] Top shape: 50 10 (500)
I0422 09:22:25.569686 20616 net.cpp:165] Memory required for data: 343009600
I0422 09:22:25.569690 20616 layer_factory.hpp:77] Creating layer fc8_urop_fc8_urop_0_split
I0422 09:22:25.569694 20616 net.cpp:106] Creating Layer fc8_urop_fc8_urop_0_split
I0422 09:22:25.569697 20616 net.cpp:454] fc8_urop_fc8_urop_0_split <- fc8_urop
I0422 09:22:25.569700 20616 net.cpp:411] fc8_urop_fc8_urop_0_split -> fc8_urop_fc8_urop_0_split_0
I0422 09:22:25.569705 20616 net.cpp:411] fc8_urop_fc8_urop_0_split -> fc8_urop_fc8_urop_0_split_1
I0422 09:22:25.569725 20616 net.cpp:150] Setting up fc8_urop_fc8_urop_0_split
I0422 09:22:25.569730 20616 net.cpp:157] Top shape: 50 10 (500)
I0422 09:22:25.569736 20616 net.cpp:157] Top shape: 50 10 (500)
I0422 09:22:25.569739 20616 net.cpp:165] Memory required for data: 343013600
I0422 09:22:25.569742 20616 layer_factory.hpp:77] Creating layer acc
I0422 09:22:25.569748 20616 net.cpp:106] Creating Layer acc
I0422 09:22:25.569752 20616 net.cpp:454] acc <- fc8_urop_fc8_urop_0_split_0
I0422 09:22:25.569764 20616 net.cpp:454] acc <- label_data_1_split_0
I0422 09:22:25.569771 20616 net.cpp:411] acc -> acc
…
