…
I0422 09:22:18.127641 20605 net.cpp:322] The NetState phase (0) differed from the phase (1) specified by a rule in layer data
I0422 09:22:18.127804 20605 net.cpp:49] Initializing net from parameters: 
name: "UROP-CaffeNet"
state {
  phase: TRAIN
}
layer {
  name: "data"
  type: "ImageData"
  top: "data"
  top: "label"
  include {
    phase: TRAIN
  }
  transform_param {
    mirror: true
    crop_size: 227
    mean_file: "data/ilsvrc12/imagenet_mean.binaryproto"
  }
  image_data_param {
    source: "urop/dance/opticalflow/train.txt"
    batch_size: 256
    shuffle: true
  }
}
layer {
  name: "conv1"
  type: "Convolution"
  bottom: "data"
  top: "conv1"
  param {
    lr_mult: 0
    decay_mult: 1
  }
  param {
    lr_mult: 0
    decay_mult: 0
  }
  convolution_param {
    num_output: 96
    kernel_size: 11
    stride: 4
    weight_filler {
      type: "gaussian"
      std: 0.01
    }
    bias_filler {
      type: "constant"
      value: 0
    }
  }
}
layer {
  name: "relu1"
  type: "ReLU"
  bottom: "conv1"
  top: "conv1"
}
layer {
  name: "pool1"
  type: "Pooling"
  bottom: "conv1"
  top: "pool1"
  pooling_param {
    pool: MAX
    kernel_size: 3
    stride: 2
  }
}
layer {
  name: "norm1"
  type: "LRN"
  bottom: "pool1"
  top: "norm1"
  lrn_param {
    local_size: 5
    alpha: 0.0001
    beta: 0.75
  }
}
layer {
  name: "conv2"
  type: "Convolution"
  bottom: "norm1"
  top: "conv2"
  param {
    lr_mult: 0
    decay_mult: 1
  }
  param {
    lr_mult: 0
    decay_mult: 0
  }
  convolution_param {
    num_output: 256
    pad: 2
    kernel_size: 5
    group: 2
    weight_filler {
      type: "gaussian"
      std: 0.01
    }
    bias_filler {
      type: "constant"
      value: 1
    }
  }
}
layer {
  name: "relu2"
  type: "ReLU"
  bottom: "conv2"
  top: "conv2"
}
layer {
  name: "pool2"
  type: "Pooling"
  bottom: "conv2"
  top: "pool2"
  pooling_param {
    pool: MAX
    kernel_size: 3
    stride: 2
  }
}
layer {
  name: "norm2"
  type: "LRN"
  bottom: "pool2"
  top: "norm2"
  lrn_param {
    local_size: 5
    alpha: 0.0001
    beta: 0.75
  }
}
layer {
  name: "conv3"
  type: "Convolution"
  bottom: "norm2"
  top: "conv3"
  param {
    lr_mult: 0
    decay_mult: 1
  }
  param {
    lr_mult: 0
    decay_mult: 0
  }
  convolution_param {
    num_output: 384
    pad: 1
    kernel_size: 3
    weight_filler {
      type: "gaussian"
      std: 0.01
    }
    bias_filler {
      type: "constant"
      value: 0
    }
  }
}
layer {
  name: "relu3"
  type: "ReLU"
  bottom: "conv3"
  top: "conv3"
}
layer {
  name: "conv4"
  type: "Convolution"
  bottom: "conv3"
  top: "conv4"
  param {
    lr_mult: 0
    decay_mult: 1
  }
  param {
    lr_mult: 0
    decay_mult: 0
  }
  convolution_param {
    num_output: 384
    pad: 1
    kernel_size: 3
    group: 2
    weight_filler {
      type: "gaussian"
      std: 0.01
    }
    bias_filler {
      type: "constant"
      value: 1
    }
  }
}
layer {
  name: "relu4"
  type: "ReLU"
  bottom: "conv4"
  top: "conv4"
}
layer {
  name: "conv5"
  type: "Convolution"
  bottom: "conv4"
  top: "conv5"
  param {
    lr_mult: 0
    decay_mult: 1
  }
  param {
    lr_mult: 0
    decay_mult: 0
  }
  convolution_param {
    num_output: 256
    pad: 1
    kernel_size: 3
    group: 2
    weight_filler {
      type: "gaussian"
      std: 0.01
    }
    bias_filler {
      type: "constant"
      value: 1
    }
  }
}
layer {
  name: "relu5"
  type: "ReLU"
  bottom: "conv5"
  top: "conv5"
}
layer {
  name: "pool5"
  type: "Pooling"
  bottom: "conv5"
  top: "pool5"
  pooling_param {
    pool: MAX
    kernel_size: 3
    stride: 2
  }
}
layer {
  name: "fc6"
  type: "InnerProduct"
  bottom: "pool5"
  top: "fc6"
  param {
    lr_mult: 1
    decay_mult: 1
  }
  param {
    lr_mult: 2
    decay_mult: 0
  }
  inner_product_param {
    num_output: 4096
    weight_filler {
      type: "gaussian"
      std: 0.005
    }
    bias_filler {
      type: "constant"
      value: 1
    }
  }
}
layer {
  name: "relu6"
  type: "ReLU"
  bottom: "fc6"
  top: "fc6"
}
layer {
  name: "drop6"
  type: "Dropout"
  bottom: "fc6"
  top: "fc6"
  dropout_param {
    dropout_ratio: 0.5
  }
}
layer {
  name: "fc7"
  type: "InnerProduct"
  bottom: "fc6"
  top: "fc7"
  param {
    lr_mult: 1
    decay_mult: 1
  }
  param {
    lr_mult: 2
    decay_mult: 0
  }
  inner_product_param {
    num_output: 4096
    weight_filler {
      type: "gaussian"
      std: 0.005
    }
    bias_filler {
      type: "constant"
      value: 1
    }
  }
}
layer {
  name: "relu7"
  type: "ReLU"
  bottom: "fc7"
  top: "fc7"
}
layer {
  name: "drop7"
  type: "Dropout"
  bottom: "fc7"
  top: "fc7"
  dropout_param {
    dropout_ratio: 0.5
  }
}
layer {
  name: "fc8_urop"
  type: "InnerProduct"
  bottom: "fc7"
  top: "fc8_urop"
  param {
    lr_mult: 10
    decay_mult: 1
  }
  param {
    lr_mult: 20
    decay_mult: 0
  }
  inner_product_param {
    num_output: 10
    weight_filler {
      type: "gaussian"
      std: 0.01
    }
    bias_filler {
      type: "constant"
      value: 0
    }
  }
}
layer {
  name: "acc"
  type: "Accuracy"
  bottom: "fc8_urop"
  bottom: "label"
  top: "acc"
}
layer {
  name: "loss"
  type: "SoftmaxWithLoss"
  bottom: "fc8_urop"
  bottom: "label"
  top: "loss"
}
I0422 09:22:18.127941 20605 layer_factory.hpp:77] Creating layer data
I0422 09:22:18.127965 20605 net.cpp:106] Creating Layer data
I0422 09:22:18.127969 20605 net.cpp:411] data -> data
I0422 09:22:18.127982 20605 net.cpp:411] data -> label
I0422 09:22:18.127990 20605 data_transformer.cpp:25] Loading mean file from: data/ilsvrc12/imagenet_mean.binaryproto
I0422 09:22:18.134945 20605 image_data_layer.cpp:38] Opening file urop/dance/opticalflow/train.txt
I0422 09:22:18.188302 20605 image_data_layer.cpp:48] Shuffling data
I0422 09:22:18.208864 20605 image_data_layer.cpp:53] A total of 174165 images.
I0422 09:22:18.209455 20605 image_data_layer.cpp:80] output data size: 256,3,227,227
I0422 09:22:18.359313 20605 net.cpp:150] Setting up data
I0422 09:22:18.359344 20605 net.cpp:157] Top shape: 256 3 227 227 (39574272)
I0422 09:22:18.359362 20605 net.cpp:157] Top shape: 256 (256)
I0422 09:22:18.359365 20605 net.cpp:165] Memory required for data: 158298112
I0422 09:22:18.359371 20605 layer_factory.hpp:77] Creating layer label_data_1_split
I0422 09:22:18.359383 20605 net.cpp:106] Creating Layer label_data_1_split
I0422 09:22:18.359386 20605 net.cpp:454] label_data_1_split <- label
I0422 09:22:18.359395 20605 net.cpp:411] label_data_1_split -> label_data_1_split_0
I0422 09:22:18.359400 20605 net.cpp:411] label_data_1_split -> label_data_1_split_1
I0422 09:22:18.359428 20605 net.cpp:150] Setting up label_data_1_split
I0422 09:22:18.359433 20605 net.cpp:157] Top shape: 256 (256)
I0422 09:22:18.359448 20605 net.cpp:157] Top shape: 256 (256)
I0422 09:22:18.359449 20605 net.cpp:165] Memory required for data: 158300160
I0422 09:22:18.359452 20605 layer_factory.hpp:77] Creating layer conv1
I0422 09:22:18.359478 20605 net.cpp:106] Creating Layer conv1
I0422 09:22:18.359482 20605 net.cpp:454] conv1 <- data
I0422 09:22:18.359484 20605 net.cpp:411] conv1 -> conv1
I0422 09:22:18.377424 20605 net.cpp:150] Setting up conv1
I0422 09:22:18.377439 20605 net.cpp:157] Top shape: 256 96 55 55 (74342400)
I0422 09:22:18.377441 20605 net.cpp:165] Memory required for data: 455669760
I0422 09:22:18.377452 20605 layer_factory.hpp:77] Creating layer relu1
I0422 09:22:18.377459 20605 net.cpp:106] Creating Layer relu1
I0422 09:22:18.377461 20605 net.cpp:454] relu1 <- conv1
I0422 09:22:18.377465 20605 net.cpp:397] relu1 -> conv1 (in-place)
I0422 09:22:18.377471 20605 net.cpp:150] Setting up relu1
I0422 09:22:18.377475 20605 net.cpp:157] Top shape: 256 96 55 55 (74342400)
I0422 09:22:18.377491 20605 net.cpp:165] Memory required for data: 753039360
I0422 09:22:18.377495 20605 layer_factory.hpp:77] Creating layer pool1
I0422 09:22:18.377498 20605 net.cpp:106] Creating Layer pool1
I0422 09:22:18.377501 20605 net.cpp:454] pool1 <- conv1
I0422 09:22:18.377504 20605 net.cpp:411] pool1 -> pool1
I0422 09:22:18.377532 20605 net.cpp:150] Setting up pool1
I0422 09:22:18.377537 20605 net.cpp:157] Top shape: 256 96 27 27 (17915904)
I0422 09:22:18.377538 20605 net.cpp:165] Memory required for data: 824702976
I0422 09:22:18.377540 20605 layer_factory.hpp:77] Creating layer norm1
I0422 09:22:18.377544 20605 net.cpp:106] Creating Layer norm1
I0422 09:22:18.377547 20605 net.cpp:454] norm1 <- pool1
I0422 09:22:18.377549 20605 net.cpp:411] norm1 -> norm1
I0422 09:22:18.377568 20605 net.cpp:150] Setting up norm1
I0422 09:22:18.377570 20605 net.cpp:157] Top shape: 256 96 27 27 (17915904)
I0422 09:22:18.377573 20605 net.cpp:165] Memory required for data: 896366592
I0422 09:22:18.377573 20605 layer_factory.hpp:77] Creating layer conv2
I0422 09:22:18.377579 20605 net.cpp:106] Creating Layer conv2
I0422 09:22:18.377581 20605 net.cpp:454] conv2 <- norm1
I0422 09:22:18.377584 20605 net.cpp:411] conv2 -> conv2
I0422 09:22:18.384582 20605 net.cpp:150] Setting up conv2
I0422 09:22:18.384593 20605 net.cpp:157] Top shape: 256 256 27 27 (47775744)
I0422 09:22:18.384594 20605 net.cpp:165] Memory required for data: 1087469568
I0422 09:22:18.384600 20605 layer_factory.hpp:77] Creating layer relu2
I0422 09:22:18.384605 20605 net.cpp:106] Creating Layer relu2
I0422 09:22:18.384608 20605 net.cpp:454] relu2 <- conv2
I0422 09:22:18.384610 20605 net.cpp:397] relu2 -> conv2 (in-place)
I0422 09:22:18.384614 20605 net.cpp:150] Setting up relu2
I0422 09:22:18.384618 20605 net.cpp:157] Top shape: 256 256 27 27 (47775744)
I0422 09:22:18.384619 20605 net.cpp:165] Memory required for data: 1278572544
I0422 09:22:18.384621 20605 layer_factory.hpp:77] Creating layer pool2
I0422 09:22:18.384625 20605 net.cpp:106] Creating Layer pool2
I0422 09:22:18.384627 20605 net.cpp:454] pool2 <- conv2
I0422 09:22:18.384630 20605 net.cpp:411] pool2 -> pool2
I0422 09:22:18.384654 20605 net.cpp:150] Setting up pool2
I0422 09:22:18.384657 20605 net.cpp:157] Top shape: 256 256 13 13 (11075584)
I0422 09:22:18.384660 20605 net.cpp:165] Memory required for data: 1322874880
I0422 09:22:18.384660 20605 layer_factory.hpp:77] Creating layer norm2
I0422 09:22:18.384665 20605 net.cpp:106] Creating Layer norm2
I0422 09:22:18.384666 20605 net.cpp:454] norm2 <- pool2
I0422 09:22:18.384670 20605 net.cpp:411] norm2 -> norm2
I0422 09:22:18.384686 20605 net.cpp:150] Setting up norm2
I0422 09:22:18.384690 20605 net.cpp:157] Top shape: 256 256 13 13 (11075584)
I0422 09:22:18.384691 20605 net.cpp:165] Memory required for data: 1367177216
I0422 09:22:18.384693 20605 layer_factory.hpp:77] Creating layer conv3
I0422 09:22:18.384699 20605 net.cpp:106] Creating Layer conv3
I0422 09:22:18.384701 20605 net.cpp:454] conv3 <- norm2
I0422 09:22:18.384704 20605 net.cpp:411] conv3 -> conv3
I0422 09:22:18.404726 20605 net.cpp:150] Setting up conv3
I0422 09:22:18.404741 20605 net.cpp:157] Top shape: 256 384 13 13 (16613376)
I0422 09:22:18.404743 20605 net.cpp:165] Memory required for data: 1433630720
I0422 09:22:18.404752 20605 layer_factory.hpp:77] Creating layer relu3
I0422 09:22:18.404757 20605 net.cpp:106] Creating Layer relu3
I0422 09:22:18.404759 20605 net.cpp:454] relu3 <- conv3
I0422 09:22:18.404763 20605 net.cpp:397] relu3 -> conv3 (in-place)
I0422 09:22:18.404768 20605 net.cpp:150] Setting up relu3
I0422 09:22:18.404772 20605 net.cpp:157] Top shape: 256 384 13 13 (16613376)
I0422 09:22:18.404773 20605 net.cpp:165] Memory required for data: 1500084224
I0422 09:22:18.404775 20605 layer_factory.hpp:77] Creating layer conv4
I0422 09:22:18.404783 20605 net.cpp:106] Creating Layer conv4
I0422 09:22:18.404784 20605 net.cpp:454] conv4 <- conv3
I0422 09:22:18.404788 20605 net.cpp:411] conv4 -> conv4
I0422 09:22:18.418848 20605 net.cpp:150] Setting up conv4
I0422 09:22:18.418875 20605 net.cpp:157] Top shape: 256 384 13 13 (16613376)
I0422 09:22:18.418890 20605 net.cpp:165] Memory required for data: 1566537728
I0422 09:22:18.418896 20605 layer_factory.hpp:77] Creating layer relu4
I0422 09:22:18.418901 20605 net.cpp:106] Creating Layer relu4
I0422 09:22:18.418905 20605 net.cpp:454] relu4 <- conv4
I0422 09:22:18.418908 20605 net.cpp:397] relu4 -> conv4 (in-place)
I0422 09:22:18.418915 20605 net.cpp:150] Setting up relu4
I0422 09:22:18.418917 20605 net.cpp:157] Top shape: 256 384 13 13 (16613376)
I0422 09:22:18.418918 20605 net.cpp:165] Memory required for data: 1632991232
I0422 09:22:18.418920 20605 layer_factory.hpp:77] Creating layer conv5
I0422 09:22:18.418928 20605 net.cpp:106] Creating Layer conv5
I0422 09:22:18.418932 20605 net.cpp:454] conv5 <- conv4
I0422 09:22:18.418936 20605 net.cpp:411] conv5 -> conv5
I0422 09:22:18.428413 20605 net.cpp:150] Setting up conv5
I0422 09:22:18.428423 20605 net.cpp:157] Top shape: 256 256 13 13 (11075584)
I0422 09:22:18.428426 20605 net.cpp:165] Memory required for data: 1677293568
I0422 09:22:18.428433 20605 layer_factory.hpp:77] Creating layer relu5
I0422 09:22:18.428438 20605 net.cpp:106] Creating Layer relu5
I0422 09:22:18.428441 20605 net.cpp:454] relu5 <- conv5
I0422 09:22:18.428444 20605 net.cpp:397] relu5 -> conv5 (in-place)
I0422 09:22:18.428448 20605 net.cpp:150] Setting up relu5
I0422 09:22:18.428450 20605 net.cpp:157] Top shape: 256 256 13 13 (11075584)
I0422 09:22:18.428452 20605 net.cpp:165] Memory required for data: 1721595904
I0422 09:22:18.428454 20605 layer_factory.hpp:77] Creating layer pool5
I0422 09:22:18.428459 20605 net.cpp:106] Creating Layer pool5
I0422 09:22:18.428462 20605 net.cpp:454] pool5 <- conv5
I0422 09:22:18.428465 20605 net.cpp:411] pool5 -> pool5
I0422 09:22:18.428486 20605 net.cpp:150] Setting up pool5
I0422 09:22:18.428489 20605 net.cpp:157] Top shape: 256 256 6 6 (2359296)
I0422 09:22:18.428491 20605 net.cpp:165] Memory required for data: 1731033088
I0422 09:22:18.428493 20605 layer_factory.hpp:77] Creating layer fc6
I0422 09:22:18.428498 20605 net.cpp:106] Creating Layer fc6
I0422 09:22:18.428500 20605 net.cpp:454] fc6 <- pool5
I0422 09:22:18.428504 20605 net.cpp:411] fc6 -> fc6
I0422 09:22:19.213726 20605 net.cpp:150] Setting up fc6
I0422 09:22:19.213742 20605 net.cpp:157] Top shape: 256 4096 (1048576)
I0422 09:22:19.213744 20605 net.cpp:165] Memory required for data: 1735227392
I0422 09:22:19.213750 20605 layer_factory.hpp:77] Creating layer relu6
I0422 09:22:19.213771 20605 net.cpp:106] Creating Layer relu6
I0422 09:22:19.213774 20605 net.cpp:454] relu6 <- fc6
I0422 09:22:19.213778 20605 net.cpp:397] relu6 -> fc6 (in-place)
I0422 09:22:19.213783 20605 net.cpp:150] Setting up relu6
I0422 09:22:19.213786 20605 net.cpp:157] Top shape: 256 4096 (1048576)
I0422 09:22:19.213788 20605 net.cpp:165] Memory required for data: 1739421696
I0422 09:22:19.213790 20605 layer_factory.hpp:77] Creating layer drop6
I0422 09:22:19.213794 20605 net.cpp:106] Creating Layer drop6
I0422 09:22:19.213798 20605 net.cpp:454] drop6 <- fc6
I0422 09:22:19.213801 20605 net.cpp:397] drop6 -> fc6 (in-place)
I0422 09:22:19.213816 20605 net.cpp:150] Setting up drop6
I0422 09:22:19.213821 20605 net.cpp:157] Top shape: 256 4096 (1048576)
I0422 09:22:19.213824 20605 net.cpp:165] Memory required for data: 1743616000
I0422 09:22:19.213825 20605 layer_factory.hpp:77] Creating layer fc7
I0422 09:22:19.213831 20605 net.cpp:106] Creating Layer fc7
I0422 09:22:19.213834 20605 net.cpp:454] fc7 <- fc6
I0422 09:22:19.213836 20605 net.cpp:411] fc7 -> fc7
I0422 09:22:19.554942 20605 net.cpp:150] Setting up fc7
I0422 09:22:19.554963 20605 net.cpp:157] Top shape: 256 4096 (1048576)
I0422 09:22:19.554967 20605 net.cpp:165] Memory required for data: 1747810304
I0422 09:22:19.554989 20605 layer_factory.hpp:77] Creating layer relu7
I0422 09:22:19.554998 20605 net.cpp:106] Creating Layer relu7
I0422 09:22:19.555002 20605 net.cpp:454] relu7 <- fc7
I0422 09:22:19.555008 20605 net.cpp:397] relu7 -> fc7 (in-place)
I0422 09:22:19.555032 20605 net.cpp:150] Setting up relu7
I0422 09:22:19.555065 20605 net.cpp:157] Top shape: 256 4096 (1048576)
I0422 09:22:19.555068 20605 net.cpp:165] Memory required for data: 1752004608
I0422 09:22:19.555086 20605 layer_factory.hpp:77] Creating layer drop7
I0422 09:22:19.555091 20605 net.cpp:106] Creating Layer drop7
I0422 09:22:19.555095 20605 net.cpp:454] drop7 <- fc7
I0422 09:22:19.555101 20605 net.cpp:397] drop7 -> fc7 (in-place)
I0422 09:22:19.555119 20605 net.cpp:150] Setting up drop7
I0422 09:22:19.555124 20605 net.cpp:157] Top shape: 256 4096 (1048576)
I0422 09:22:19.555140 20605 net.cpp:165] Memory required for data: 1756198912
I0422 09:22:19.555143 20605 layer_factory.hpp:77] Creating layer fc8_urop
I0422 09:22:19.555150 20605 net.cpp:106] Creating Layer fc8_urop
I0422 09:22:19.555155 20605 net.cpp:454] fc8_urop <- fc7
I0422 09:22:19.555160 20605 net.cpp:411] fc8_urop -> fc8_urop
I0422 09:22:19.556394 20605 net.cpp:150] Setting up fc8_urop
I0422 09:22:19.556403 20605 net.cpp:157] Top shape: 256 10 (2560)
I0422 09:22:19.556406 20605 net.cpp:165] Memory required for data: 1756209152
I0422 09:22:19.556411 20605 layer_factory.hpp:77] Creating layer fc8_urop_fc8_urop_0_split
I0422 09:22:19.556416 20605 net.cpp:106] Creating Layer fc8_urop_fc8_urop_0_split
I0422 09:22:19.556417 20605 net.cpp:454] fc8_urop_fc8_urop_0_split <- fc8_urop
I0422 09:22:19.556421 20605 net.cpp:411] fc8_urop_fc8_urop_0_split -> fc8_urop_fc8_urop_0_split_0
I0422 09:22:19.556426 20605 net.cpp:411] fc8_urop_fc8_urop_0_split -> fc8_urop_fc8_urop_0_split_1
I0422 09:22:19.556444 20605 net.cpp:150] Setting up fc8_urop_fc8_urop_0_split
I0422 09:22:19.556448 20605 net.cpp:157] Top shape: 256 10 (2560)
I0422 09:22:19.556452 20605 net.cpp:157] Top shape: 256 10 (2560)
I0422 09:22:19.556453 20605 net.cpp:165] Memory required for data: 1756229632
I0422 09:22:19.556455 20605 layer_factory.hpp:77] Creating layer acc
I0422 09:22:19.556459 20605 net.cpp:106] Creating Layer acc
I0422 09:22:19.556463 20605 net.cpp:454] acc <- fc8_urop_fc8_urop_0_split_0
I0422 09:22:19.556468 20605 net.cpp:454] acc <- label_data_1_split_0
I0422 09:22:19.556473 20605 net.cpp:411] acc -> acc
…
I0422 09:22:19.557286 20605 net.cpp:322] The NetState phase (1) differed from the phase (0) specified by a rule in layer data
I0422 09:22:19.557404 20605 net.cpp:49] Initializing net from parameters: 
name: "UROP-CaffeNet"
state {
  phase: TEST
}
layer {
  name: "data"
  type: "ImageData"
  top: "data"
  top: "label"
  include {
    phase: TEST
  }
  transform_param {
    mirror: false
    crop_size: 227
    mean_file: "data/ilsvrc12/imagenet_mean.binaryproto"
  }
  image_data_param {
    source: "urop/dance/opticalflow/val.txt"
    batch_size: 50
    shuffle: true
  }
}
layer {
  name: "conv1"
  type: "Convolution"
  bottom: "data"
  top: "conv1"
  param {
    lr_mult: 0
    decay_mult: 1
  }
  param {
    lr_mult: 0
    decay_mult: 0
  }
  convolution_param {
    num_output: 96
    kernel_size: 11
    stride: 4
    weight_filler {
      type: "gaussian"
      std: 0.01
    }
    bias_filler {
      type: "constant"
      value: 0
    }
  }
}
layer {
  name: "relu1"
  type: "ReLU"
  bottom: "conv1"
  top: "conv1"
}
layer {
  name: "pool1"
  type: "Pooling"
  bottom: "conv1"
  top: "pool1"
  pooling_param {
    pool: MAX
    kernel_size: 3
    stride: 2
  }
}
layer {
  name: "norm1"
  type: "LRN"
  bottom: "pool1"
  top: "norm1"
  lrn_param {
    local_size: 5
    alpha: 0.0001
    beta: 0.75
  }
}
layer {
  name: "conv2"
  type: "Convolution"
  bottom: "norm1"
  top: "conv2"
  param {
    lr_mult: 0
    decay_mult: 1
  }
  param {
    lr_mult: 0
    decay_mult: 0
  }
  convolution_param {
    num_output: 256
    pad: 2
    kernel_size: 5
    group: 2
    weight_filler {
      type: "gaussian"
      std: 0.01
    }
    bias_filler {
      type: "constant"
      value: 1
    }
  }
}
layer {
  name: "relu2"
  type: "ReLU"
  bottom: "conv2"
  top: "conv2"
}
layer {
  name: "pool2"
  type: "Pooling"
  bottom: "conv2"
  top: "pool2"
  pooling_param {
    pool: MAX
    kernel_size: 3
    stride: 2
  }
}
layer {
  name: "norm2"
  type: "LRN"
  bottom: "pool2"
  top: "norm2"
  lrn_param {
    local_size: 5
    alpha: 0.0001
    beta: 0.75
  }
}
layer {
  name: "conv3"
  type: "Convolution"
  bottom: "norm2"
  top: "conv3"
  param {
    lr_mult: 0
    decay_mult: 1
  }
  param {
    lr_mult: 0
    decay_mult: 0
  }
  convolution_param {
    num_output: 384
    pad: 1
    kernel_size: 3
    weight_filler {
      type: "gaussian"
      std: 0.01
    }
    bias_filler {
      type: "constant"
      value: 0
    }
  }
}
layer {
  name: "relu3"
  type: "ReLU"
  bottom: "conv3"
  top: "conv3"
}
layer {
  name: "conv4"
  type: "Convolution"
  bottom: "conv3"
  top: "conv4"
  param {
    lr_mult: 0
    decay_mult: 1
  }
  param {
    lr_mult: 0
    decay_mult: 0
  }
  convolution_param {
    num_output: 384
    pad: 1
    kernel_size: 3
    group: 2
    weight_filler {
      type: "gaussian"
      std: 0.01
    }
    bias_filler {
      type: "constant"
      value: 1
    }
  }
}
layer {
  name: "relu4"
  type: "ReLU"
  bottom: "conv4"
  top: "conv4"
}
layer {
  name: "conv5"
  type: "Convolution"
  bottom: "conv4"
  top: "conv5"
  param {
    lr_mult: 0
    decay_mult: 1
  }
  param {
    lr_mult: 0
    decay_mult: 0
  }
  convolution_param {
    num_output: 256
    pad: 1
    kernel_size: 3
    group: 2
    weight_filler {
      type: "gaussian"
      std: 0.01
    }
    bias_filler {
      type: "constant"
      value: 1
    }
  }
}
layer {
  name: "relu5"
  type: "ReLU"
  bottom: "conv5"
  top: "conv5"
}
layer {
  name: "pool5"
  type: "Pooling"
  bottom: "conv5"
  top: "pool5"
  pooling_param {
    pool: MAX
    kernel_size: 3
    stride: 2
  }
}
layer {
  name: "fc6"
  type: "InnerProduct"
  bottom: "pool5"
  top: "fc6"
  param {
    lr_mult: 1
    decay_mult: 1
  }
  param {
    lr_mult: 2
    decay_mult: 0
  }
  inner_product_param {
    num_output: 4096
    weight_filler {
      type: "gaussian"
      std: 0.005
    }
    bias_filler {
      type: "constant"
      value: 1
    }
  }
}
layer {
  name: "relu6"
  type: "ReLU"
  bottom: "fc6"
  top: "fc6"
}
layer {
  name: "drop6"
  type: "Dropout"
  bottom: "fc6"
  top: "fc6"
  dropout_param {
    dropout_ratio: 0.5
  }
}
layer {
  name: "fc7"
  type: "InnerProduct"
  bottom: "fc6"
  top: "fc7"
  param {
    lr_mult: 1
    decay_mult: 1
  }
  param {
    lr_mult: 2
    decay_mult: 0
  }
  inner_product_param {
    num_output: 4096
    weight_filler {
      type: "gaussian"
      std: 0.005
    }
    bias_filler {
      type: "constant"
      value: 1
    }
  }
}
layer {
  name: "relu7"
  type: "ReLU"
  bottom: "fc7"
  top: "fc7"
}
layer {
  name: "drop7"
  type: "Dropout"
  bottom: "fc7"
  top: "fc7"
  dropout_param {
    dropout_ratio: 0.5
  }
}
layer {
  name: "fc8_urop"
  type: "InnerProduct"
  bottom: "fc7"
  top: "fc8_urop"
  param {
    lr_mult: 10
    decay_mult: 1
  }
  param {
    lr_mult: 20
    decay_mult: 0
  }
  inner_product_param {
    num_output: 10
    weight_filler {
      type: "gaussian"
      std: 0.01
    }
    bias_filler {
      type: "constant"
      value: 0
    }
  }
}
layer {
  name: "acc"
  type: "Accuracy"
  bottom: "fc8_urop"
  bottom: "label"
  top: "acc"
}
layer {
  name: "loss"
  type: "SoftmaxWithLoss"
  bottom: "fc8_urop"
  bottom: "label"
  top: "loss"
}
I0422 09:22:19.557482 20605 layer_factory.hpp:77] Creating layer data
I0422 09:22:19.557489 20605 net.cpp:106] Creating Layer data
I0422 09:22:19.557493 20605 net.cpp:411] data -> data
I0422 09:22:19.557500 20605 net.cpp:411] data -> label
I0422 09:22:19.557505 20605 data_transformer.cpp:25] Loading mean file from: data/ilsvrc12/imagenet_mean.binaryproto
I0422 09:22:19.558826 20605 image_data_layer.cpp:38] Opening file urop/dance/opticalflow/val.txt
I0422 09:22:19.583776 20605 image_data_layer.cpp:48] Shuffling data
I0422 09:22:19.592331 20605 image_data_layer.cpp:53] A total of 75821 images.
I0422 09:22:19.592779 20605 image_data_layer.cpp:80] output data size: 50,3,227,227
I0422 09:22:19.622743 20605 net.cpp:150] Setting up data
I0422 09:22:19.622759 20605 net.cpp:157] Top shape: 50 3 227 227 (7729350)
I0422 09:22:19.622786 20605 net.cpp:157] Top shape: 50 (50)
I0422 09:22:19.622787 20605 net.cpp:165] Memory required for data: 30917600
I0422 09:22:19.622792 20605 layer_factory.hpp:77] Creating layer label_data_1_split
I0422 09:22:19.622799 20605 net.cpp:106] Creating Layer label_data_1_split
I0422 09:22:19.622802 20605 net.cpp:454] label_data_1_split <- label
I0422 09:22:19.622807 20605 net.cpp:411] label_data_1_split -> label_data_1_split_0
I0422 09:22:19.622814 20605 net.cpp:411] label_data_1_split -> label_data_1_split_1
I0422 09:22:19.622880 20605 net.cpp:150] Setting up label_data_1_split
I0422 09:22:19.622884 20605 net.cpp:157] Top shape: 50 (50)
I0422 09:22:19.622886 20605 net.cpp:157] Top shape: 50 (50)
I0422 09:22:19.622901 20605 net.cpp:165] Memory required for data: 30918000
I0422 09:22:19.622903 20605 layer_factory.hpp:77] Creating layer conv1
I0422 09:22:19.622911 20605 net.cpp:106] Creating Layer conv1
I0422 09:22:19.622915 20605 net.cpp:454] conv1 <- data
I0422 09:22:19.622918 20605 net.cpp:411] conv1 -> conv1
I0422 09:22:19.623764 20605 net.cpp:150] Setting up conv1
I0422 09:22:19.623769 20605 net.cpp:157] Top shape: 50 96 55 55 (14520000)
I0422 09:22:19.623785 20605 net.cpp:165] Memory required for data: 88998000
I0422 09:22:19.623791 20605 layer_factory.hpp:77] Creating layer relu1
I0422 09:22:19.623795 20605 net.cpp:106] Creating Layer relu1
I0422 09:22:19.623798 20605 net.cpp:454] relu1 <- conv1
I0422 09:22:19.623801 20605 net.cpp:397] relu1 -> conv1 (in-place)
I0422 09:22:19.623805 20605 net.cpp:150] Setting up relu1
I0422 09:22:19.623807 20605 net.cpp:157] Top shape: 50 96 55 55 (14520000)
I0422 09:22:19.623810 20605 net.cpp:165] Memory required for data: 147078000
I0422 09:22:19.623811 20605 layer_factory.hpp:77] Creating layer pool1
I0422 09:22:19.623816 20605 net.cpp:106] Creating Layer pool1
I0422 09:22:19.623817 20605 net.cpp:454] pool1 <- conv1
I0422 09:22:19.623821 20605 net.cpp:411] pool1 -> pool1
I0422 09:22:19.623842 20605 net.cpp:150] Setting up pool1
I0422 09:22:19.623845 20605 net.cpp:157] Top shape: 50 96 27 27 (3499200)
I0422 09:22:19.623847 20605 net.cpp:165] Memory required for data: 161074800
I0422 09:22:19.623849 20605 layer_factory.hpp:77] Creating layer norm1
I0422 09:22:19.623855 20605 net.cpp:106] Creating Layer norm1
I0422 09:22:19.623858 20605 net.cpp:454] norm1 <- pool1
I0422 09:22:19.623863 20605 net.cpp:411] norm1 -> norm1
I0422 09:22:19.623888 20605 net.cpp:150] Setting up norm1
I0422 09:22:19.623893 20605 net.cpp:157] Top shape: 50 96 27 27 (3499200)
I0422 09:22:19.623895 20605 net.cpp:165] Memory required for data: 175071600
I0422 09:22:19.623899 20605 layer_factory.hpp:77] Creating layer conv2
I0422 09:22:19.623906 20605 net.cpp:106] Creating Layer conv2
I0422 09:22:19.623910 20605 net.cpp:454] conv2 <- norm1
I0422 09:22:19.623916 20605 net.cpp:411] conv2 -> conv2
I0422 09:22:19.633725 20605 net.cpp:150] Setting up conv2
I0422 09:22:19.633751 20605 net.cpp:157] Top shape: 50 256 27 27 (9331200)
I0422 09:22:19.633754 20605 net.cpp:165] Memory required for data: 212396400
I0422 09:22:19.633761 20605 layer_factory.hpp:77] Creating layer relu2
I0422 09:22:19.633766 20605 net.cpp:106] Creating Layer relu2
I0422 09:22:19.633769 20605 net.cpp:454] relu2 <- conv2
I0422 09:22:19.633774 20605 net.cpp:397] relu2 -> conv2 (in-place)
I0422 09:22:19.633780 20605 net.cpp:150] Setting up relu2
I0422 09:22:19.633782 20605 net.cpp:157] Top shape: 50 256 27 27 (9331200)
I0422 09:22:19.633785 20605 net.cpp:165] Memory required for data: 249721200
I0422 09:22:19.633786 20605 layer_factory.hpp:77] Creating layer pool2
I0422 09:22:19.633791 20605 net.cpp:106] Creating Layer pool2
I0422 09:22:19.633793 20605 net.cpp:454] pool2 <- conv2
I0422 09:22:19.633796 20605 net.cpp:411] pool2 -> pool2
I0422 09:22:19.633817 20605 net.cpp:150] Setting up pool2
I0422 09:22:19.633822 20605 net.cpp:157] Top shape: 50 256 13 13 (2163200)
I0422 09:22:19.633823 20605 net.cpp:165] Memory required for data: 258374000
I0422 09:22:19.633826 20605 layer_factory.hpp:77] Creating layer norm2
I0422 09:22:19.633829 20605 net.cpp:106] Creating Layer norm2
I0422 09:22:19.633831 20605 net.cpp:454] norm2 <- pool2
I0422 09:22:19.633834 20605 net.cpp:411] norm2 -> norm2
I0422 09:22:19.633853 20605 net.cpp:150] Setting up norm2
I0422 09:22:19.633857 20605 net.cpp:157] Top shape: 50 256 13 13 (2163200)
I0422 09:22:19.633857 20605 net.cpp:165] Memory required for data: 267026800
I0422 09:22:19.633859 20605 layer_factory.hpp:77] Creating layer conv3
I0422 09:22:19.633865 20605 net.cpp:106] Creating Layer conv3
I0422 09:22:19.633867 20605 net.cpp:454] conv3 <- norm2
I0422 09:22:19.633870 20605 net.cpp:411] conv3 -> conv3
I0422 09:22:19.652743 20605 net.cpp:150] Setting up conv3
I0422 09:22:19.652757 20605 net.cpp:157] Top shape: 50 384 13 13 (3244800)
I0422 09:22:19.652791 20605 net.cpp:165] Memory required for data: 280006000
I0422 09:22:19.652804 20605 layer_factory.hpp:77] Creating layer relu3
I0422 09:22:19.652823 20605 net.cpp:106] Creating Layer relu3
I0422 09:22:19.652827 20605 net.cpp:454] relu3 <- conv3
I0422 09:22:19.652833 20605 net.cpp:397] relu3 -> conv3 (in-place)
I0422 09:22:19.652842 20605 net.cpp:150] Setting up relu3
I0422 09:22:19.652844 20605 net.cpp:157] Top shape: 50 384 13 13 (3244800)
I0422 09:22:19.652847 20605 net.cpp:165] Memory required for data: 292985200
I0422 09:22:19.652849 20605 layer_factory.hpp:77] Creating layer conv4
I0422 09:22:19.652855 20605 net.cpp:106] Creating Layer conv4
I0422 09:22:19.652858 20605 net.cpp:454] conv4 <- conv3
I0422 09:22:19.652861 20605 net.cpp:411] conv4 -> conv4
I0422 09:22:19.667248 20605 net.cpp:150] Setting up conv4
I0422 09:22:19.667275 20605 net.cpp:157] Top shape: 50 384 13 13 (3244800)
I0422 09:22:19.667279 20605 net.cpp:165] Memory required for data: 305964400
I0422 09:22:19.667284 20605 layer_factory.hpp:77] Creating layer relu4
I0422 09:22:19.667289 20605 net.cpp:106] Creating Layer relu4
I0422 09:22:19.667292 20605 net.cpp:454] relu4 <- conv4
I0422 09:22:19.667295 20605 net.cpp:397] relu4 -> conv4 (in-place)
I0422 09:22:19.667301 20605 net.cpp:150] Setting up relu4
I0422 09:22:19.667304 20605 net.cpp:157] Top shape: 50 384 13 13 (3244800)
I0422 09:22:19.667305 20605 net.cpp:165] Memory required for data: 318943600
I0422 09:22:19.667307 20605 layer_factory.hpp:77] Creating layer conv5
I0422 09:22:19.667315 20605 net.cpp:106] Creating Layer conv5
I0422 09:22:19.667316 20605 net.cpp:454] conv5 <- conv4
I0422 09:22:19.667320 20605 net.cpp:411] conv5 -> conv5
I0422 09:22:19.676821 20605 net.cpp:150] Setting up conv5
I0422 09:22:19.676831 20605 net.cpp:157] Top shape: 50 256 13 13 (2163200)
I0422 09:22:19.676832 20605 net.cpp:165] Memory required for data: 327596400
I0422 09:22:19.676841 20605 layer_factory.hpp:77] Creating layer relu5
I0422 09:22:19.676846 20605 net.cpp:106] Creating Layer relu5
I0422 09:22:19.676847 20605 net.cpp:454] relu5 <- conv5
I0422 09:22:19.676851 20605 net.cpp:397] relu5 -> conv5 (in-place)
I0422 09:22:19.676856 20605 net.cpp:150] Setting up relu5
I0422 09:22:19.676858 20605 net.cpp:157] Top shape: 50 256 13 13 (2163200)
I0422 09:22:19.676859 20605 net.cpp:165] Memory required for data: 336249200
I0422 09:22:19.676862 20605 layer_factory.hpp:77] Creating layer pool5
I0422 09:22:19.676867 20605 net.cpp:106] Creating Layer pool5
I0422 09:22:19.676868 20605 net.cpp:454] pool5 <- conv5
I0422 09:22:19.676873 20605 net.cpp:411] pool5 -> pool5
I0422 09:22:19.676897 20605 net.cpp:150] Setting up pool5
I0422 09:22:19.676900 20605 net.cpp:157] Top shape: 50 256 6 6 (460800)
I0422 09:22:19.676903 20605 net.cpp:165] Memory required for data: 338092400
I0422 09:22:19.676904 20605 layer_factory.hpp:77] Creating layer fc6
I0422 09:22:19.676909 20605 net.cpp:106] Creating Layer fc6
I0422 09:22:19.676911 20605 net.cpp:454] fc6 <- pool5
I0422 09:22:19.676915 20605 net.cpp:411] fc6 -> fc6
I0422 09:22:20.455072 20605 net.cpp:150] Setting up fc6
I0422 09:22:20.455087 20605 net.cpp:157] Top shape: 50 4096 (204800)
I0422 09:22:20.455090 20605 net.cpp:165] Memory required for data: 338911600
I0422 09:22:20.455096 20605 layer_factory.hpp:77] Creating layer relu6
I0422 09:22:20.455116 20605 net.cpp:106] Creating Layer relu6
I0422 09:22:20.455119 20605 net.cpp:454] relu6 <- fc6
I0422 09:22:20.455123 20605 net.cpp:397] relu6 -> fc6 (in-place)
I0422 09:22:20.455128 20605 net.cpp:150] Setting up relu6
I0422 09:22:20.455132 20605 net.cpp:157] Top shape: 50 4096 (204800)
I0422 09:22:20.455133 20605 net.cpp:165] Memory required for data: 339730800
I0422 09:22:20.455135 20605 layer_factory.hpp:77] Creating layer drop6
I0422 09:22:20.455139 20605 net.cpp:106] Creating Layer drop6
I0422 09:22:20.455143 20605 net.cpp:454] drop6 <- fc6
I0422 09:22:20.455160 20605 net.cpp:397] drop6 -> fc6 (in-place)
I0422 09:22:20.455178 20605 net.cpp:150] Setting up drop6
I0422 09:22:20.455183 20605 net.cpp:157] Top shape: 50 4096 (204800)
I0422 09:22:20.455199 20605 net.cpp:165] Memory required for data: 340550000
I0422 09:22:20.455201 20605 layer_factory.hpp:77] Creating layer fc7
I0422 09:22:20.455206 20605 net.cpp:106] Creating Layer fc7
I0422 09:22:20.455209 20605 net.cpp:454] fc7 <- fc6
I0422 09:22:20.455212 20605 net.cpp:411] fc7 -> fc7
I0422 09:22:20.807596 20605 net.cpp:150] Setting up fc7
I0422 09:22:20.807612 20605 net.cpp:157] Top shape: 50 4096 (204800)
I0422 09:22:20.807615 20605 net.cpp:165] Memory required for data: 341369200
I0422 09:22:20.807621 20605 layer_factory.hpp:77] Creating layer relu7
I0422 09:22:20.807641 20605 net.cpp:106] Creating Layer relu7
I0422 09:22:20.807643 20605 net.cpp:454] relu7 <- fc7
I0422 09:22:20.807646 20605 net.cpp:397] relu7 -> fc7 (in-place)
I0422 09:22:20.807652 20605 net.cpp:150] Setting up relu7
I0422 09:22:20.807654 20605 net.cpp:157] Top shape: 50 4096 (204800)
I0422 09:22:20.807657 20605 net.cpp:165] Memory required for data: 342188400
I0422 09:22:20.807658 20605 layer_factory.hpp:77] Creating layer drop7
I0422 09:22:20.807663 20605 net.cpp:106] Creating Layer drop7
I0422 09:22:20.807667 20605 net.cpp:454] drop7 <- fc7
I0422 09:22:20.807669 20605 net.cpp:397] drop7 -> fc7 (in-place)
I0422 09:22:20.807703 20605 net.cpp:150] Setting up drop7
I0422 09:22:20.807705 20605 net.cpp:157] Top shape: 50 4096 (204800)
I0422 09:22:20.807708 20605 net.cpp:165] Memory required for data: 343007600
I0422 09:22:20.807709 20605 layer_factory.hpp:77] Creating layer fc8_urop
I0422 09:22:20.807714 20605 net.cpp:106] Creating Layer fc8_urop
I0422 09:22:20.807716 20605 net.cpp:454] fc8_urop <- fc7
I0422 09:22:20.807720 20605 net.cpp:411] fc8_urop -> fc8_urop
I0422 09:22:20.808660 20605 net.cpp:150] Setting up fc8_urop
I0422 09:22:20.808665 20605 net.cpp:157] Top shape: 50 10 (500)
I0422 09:22:20.808667 20605 net.cpp:165] Memory required for data: 343009600
I0422 09:22:20.808670 20605 layer_factory.hpp:77] Creating layer fc8_urop_fc8_urop_0_split
I0422 09:22:20.808673 20605 net.cpp:106] Creating Layer fc8_urop_fc8_urop_0_split
I0422 09:22:20.808676 20605 net.cpp:454] fc8_urop_fc8_urop_0_split <- fc8_urop
I0422 09:22:20.808693 20605 net.cpp:411] fc8_urop_fc8_urop_0_split -> fc8_urop_fc8_urop_0_split_0
I0422 09:22:20.808697 20605 net.cpp:411] fc8_urop_fc8_urop_0_split -> fc8_urop_fc8_urop_0_split_1
I0422 09:22:20.808732 20605 net.cpp:150] Setting up fc8_urop_fc8_urop_0_split
I0422 09:22:20.808735 20605 net.cpp:157] Top shape: 50 10 (500)
I0422 09:22:20.808738 20605 net.cpp:157] Top shape: 50 10 (500)
I0422 09:22:20.808740 20605 net.cpp:165] Memory required for data: 343013600
I0422 09:22:20.808743 20605 layer_factory.hpp:77] Creating layer acc
I0422 09:22:20.808745 20605 net.cpp:106] Creating Layer acc
I0422 09:22:20.808760 20605 net.cpp:454] acc <- fc8_urop_fc8_urop_0_split_0
I0422 09:22:20.808763 20605 net.cpp:454] acc <- label_data_1_split_0
I0422 09:22:20.808765 20605 net.cpp:411] acc -> acc
…
